CompletionNet(
  (encoder): Sequential(
    (0): PointNetfeat(
      (stn): STN3d(
        (conv1): Conv1d(3, 64, kernel_size=(1,), stride=(1,))
        (conv2): Conv1d(64, 128, kernel_size=(1,), stride=(1,))
        (conv3): Conv1d(128, 1024, kernel_size=(1,), stride=(1,))
        (fc1): Linear(in_features=1024, out_features=512, bias=True)
        (fc2): Linear(in_features=512, out_features=256, bias=True)
        (fc3): Linear(in_features=256, out_features=1, bias=True)
        (relu): ReLU()
      )
      (conv1): Conv1d(3, 64, kernel_size=(1,), stride=(1,))
      (conv2): Conv1d(64, 128, kernel_size=(1,), stride=(1,))
      (conv3): Conv1d(128, 1024, kernel_size=(1,), stride=(1,))
      (bn1): BatchNorm1d(64, eps=1e-05, momentum=0.1, affine=True, track_running_stats=True)
      (bn2): BatchNorm1d(128, eps=1e-05, momentum=0.1, affine=True, track_running_stats=True)
      (bn3): BatchNorm1d(1024, eps=1e-05, momentum=0.1, affine=True, track_running_stats=True)
    )
    (1): Linear(in_features=1024, out_features=1024, bias=True)
    (2): BatchNorm1d(1024, eps=1e-05, momentum=0.1, affine=True, track_running_stats=True)
    (3): ReLU()
  )
  (decoder): PointGenCon(
    (conv1): Conv1d(2051, 2051, kernel_size=(1,), stride=(1,))
    (conv2): Conv1d(2051, 1025, kernel_size=(1,), stride=(1,))
    (conv3): Conv1d(1025, 512, kernel_size=(1,), stride=(1,))
    (conv4): Conv1d(512, 256, kernel_size=(1,), stride=(1,))
    (conv5): Conv1d(256, 128, kernel_size=(1,), stride=(1,))
    (conv6): Conv1d(128, 128, kernel_size=(1,), stride=(1,))
    (conv7): Conv1d(128, 128, kernel_size=(1,), stride=(1,))
    (conv8): Conv1d(128, 128, kernel_size=(1,), stride=(1,))
    (conv9): Conv1d(128, 3, kernel_size=(1,), stride=(1,))
    (th): Tanh()
    (bn1): BatchNorm1d(2051, eps=1e-05, momentum=0.1, affine=True, track_running_stats=True)
    (bn2): BatchNorm1d(1025, eps=1e-05, momentum=0.1, affine=True, track_running_stats=True)
    (bn3): BatchNorm1d(512, eps=1e-05, momentum=0.1, affine=True, track_running_stats=True)
    (bn4): BatchNorm1d(256, eps=1e-05, momentum=0.1, affine=True, track_running_stats=True)
    (bn5): BatchNorm1d(128, eps=1e-05, momentum=0.1, affine=True, track_running_stats=True)
    (bn6): BatchNorm1d(128, eps=1e-05, momentum=0.1, affine=True, track_running_stats=True)
    (bn7): BatchNorm1d(128, eps=1e-05, momentum=0.1, affine=True, track_running_stats=True)
    (bn8): BatchNorm1d(128, eps=1e-05, momentum=0.1, affine=True, track_running_stats=True)
  )
)
CompletionNet(
  (encoder): Sequential(
    (0): PointNetfeat(
      (stn): STN3d(
        (conv1): Conv1d(3, 64, kernel_size=(1,), stride=(1,))
        (conv2): Conv1d(64, 128, kernel_size=(1,), stride=(1,))
        (conv3): Conv1d(128, 1024, kernel_size=(1,), stride=(1,))
        (fc1): Linear(in_features=1024, out_features=512, bias=True)
        (fc2): Linear(in_features=512, out_features=256, bias=True)
        (fc3): Linear(in_features=256, out_features=1, bias=True)
        (relu): ReLU()
      )
      (conv1): Conv1d(3, 64, kernel_size=(1,), stride=(1,))
      (conv2): Conv1d(64, 128, kernel_size=(1,), stride=(1,))
      (conv3): Conv1d(128, 1024, kernel_size=(1,), stride=(1,))
      (bn1): BatchNorm1d(64, eps=1e-05, momentum=0.1, affine=True, track_running_stats=True)
      (bn2): BatchNorm1d(128, eps=1e-05, momentum=0.1, affine=True, track_running_stats=True)
      (bn3): BatchNorm1d(1024, eps=1e-05, momentum=0.1, affine=True, track_running_stats=True)
    )
    (1): Linear(in_features=1024, out_features=1024, bias=True)
    (2): BatchNorm1d(1024, eps=1e-05, momentum=0.1, affine=True, track_running_stats=True)
    (3): ReLU()
  )
  (decoder): PointGenCon(
    (conv1): Conv1d(2051, 2051, kernel_size=(1,), stride=(1,))
    (conv2): Conv1d(2051, 1025, kernel_size=(1,), stride=(1,))
    (conv3): Conv1d(1025, 512, kernel_size=(1,), stride=(1,))
    (conv4): Conv1d(512, 256, kernel_size=(1,), stride=(1,))
    (conv5): Conv1d(256, 128, kernel_size=(1,), stride=(1,))
    (conv6): Conv1d(128, 128, kernel_size=(1,), stride=(1,))
    (conv7): Conv1d(128, 128, kernel_size=(1,), stride=(1,))
    (conv8): Conv1d(128, 128, kernel_size=(1,), stride=(1,))
    (conv9): Conv1d(128, 3, kernel_size=(1,), stride=(1,))
    (th): Tanh()
    (bn1): BatchNorm1d(2051, eps=1e-05, momentum=0.1, affine=True, track_running_stats=True)
    (bn2): BatchNorm1d(1025, eps=1e-05, momentum=0.1, affine=True, track_running_stats=True)
    (bn3): BatchNorm1d(512, eps=1e-05, momentum=0.1, affine=True, track_running_stats=True)
    (bn4): BatchNorm1d(256, eps=1e-05, momentum=0.1, affine=True, track_running_stats=True)
    (bn5): BatchNorm1d(128, eps=1e-05, momentum=0.1, affine=True, track_running_stats=True)
    (bn6): BatchNorm1d(128, eps=1e-05, momentum=0.1, affine=True, track_running_stats=True)
    (bn7): BatchNorm1d(128, eps=1e-05, momentum=0.1, affine=True, track_running_stats=True)
    (bn8): BatchNorm1d(128, eps=1e-05, momentum=0.1, affine=True, track_running_stats=True)
  )
)
CompletionNet(
  (encoder): Sequential(
    (0): PointNetfeat(
      (stn): STN3d(
        (conv1): Conv1d(3, 64, kernel_size=(1,), stride=(1,))
        (conv2): Conv1d(64, 128, kernel_size=(1,), stride=(1,))
        (conv3): Conv1d(128, 1024, kernel_size=(1,), stride=(1,))
        (fc1): Linear(in_features=1024, out_features=512, bias=True)
        (fc2): Linear(in_features=512, out_features=256, bias=True)
        (fc3): Linear(in_features=256, out_features=1, bias=True)
        (relu): ReLU()
      )
      (conv1): Conv1d(3, 64, kernel_size=(1,), stride=(1,))
      (conv2): Conv1d(64, 128, kernel_size=(1,), stride=(1,))
      (conv3): Conv1d(128, 1024, kernel_size=(1,), stride=(1,))
      (bn1): BatchNorm1d(64, eps=1e-05, momentum=0.1, affine=True, track_running_stats=True)
      (bn2): BatchNorm1d(128, eps=1e-05, momentum=0.1, affine=True, track_running_stats=True)
      (bn3): BatchNorm1d(1024, eps=1e-05, momentum=0.1, affine=True, track_running_stats=True)
    )
    (1): Linear(in_features=1024, out_features=1024, bias=True)
    (2): BatchNorm1d(1024, eps=1e-05, momentum=0.1, affine=True, track_running_stats=True)
    (3): ReLU()
  )
  (decoder): PointGenCon(
    (conv1): Conv1d(2051, 2051, kernel_size=(1,), stride=(1,))
    (conv2): Conv1d(2051, 1025, kernel_size=(1,), stride=(1,))
    (conv3): Conv1d(1025, 512, kernel_size=(1,), stride=(1,))
    (conv4): Conv1d(512, 256, kernel_size=(1,), stride=(1,))
    (conv5): Conv1d(256, 128, kernel_size=(1,), stride=(1,))
    (conv6): Conv1d(128, 128, kernel_size=(1,), stride=(1,))
    (conv7): Conv1d(128, 128, kernel_size=(1,), stride=(1,))
    (conv8): Conv1d(128, 128, kernel_size=(1,), stride=(1,))
    (conv9): Conv1d(128, 3, kernel_size=(1,), stride=(1,))
    (th): Tanh()
    (bn1): BatchNorm1d(2051, eps=1e-05, momentum=0.1, affine=True, track_running_stats=True)
    (bn2): BatchNorm1d(1025, eps=1e-05, momentum=0.1, affine=True, track_running_stats=True)
    (bn3): BatchNorm1d(512, eps=1e-05, momentum=0.1, affine=True, track_running_stats=True)
    (bn4): BatchNorm1d(256, eps=1e-05, momentum=0.1, affine=True, track_running_stats=True)
    (bn5): BatchNorm1d(128, eps=1e-05, momentum=0.1, affine=True, track_running_stats=True)
    (bn6): BatchNorm1d(128, eps=1e-05, momentum=0.1, affine=True, track_running_stats=True)
    (bn7): BatchNorm1d(128, eps=1e-05, momentum=0.1, affine=True, track_running_stats=True)
    (bn8): BatchNorm1d(128, eps=1e-05, momentum=0.1, affine=True, track_running_stats=True)
  )
)
CompletionNet(
  (encoder): Sequential(
    (0): PointNetfeat(
      (stn): STN3d(
        (conv1): Conv1d(3, 64, kernel_size=(1,), stride=(1,))
        (conv2): Conv1d(64, 128, kernel_size=(1,), stride=(1,))
        (conv3): Conv1d(128, 1024, kernel_size=(1,), stride=(1,))
        (fc1): Linear(in_features=1024, out_features=512, bias=True)
        (fc2): Linear(in_features=512, out_features=256, bias=True)
        (fc3): Linear(in_features=256, out_features=1, bias=True)
        (relu): ReLU()
      )
      (conv1): Conv1d(3, 64, kernel_size=(1,), stride=(1,))
      (conv2): Conv1d(64, 128, kernel_size=(1,), stride=(1,))
      (conv3): Conv1d(128, 1024, kernel_size=(1,), stride=(1,))
      (bn1): BatchNorm1d(64, eps=1e-05, momentum=0.1, affine=True, track_running_stats=True)
      (bn2): BatchNorm1d(128, eps=1e-05, momentum=0.1, affine=True, track_running_stats=True)
      (bn3): BatchNorm1d(1024, eps=1e-05, momentum=0.1, affine=True, track_running_stats=True)
    )
    (1): Linear(in_features=1024, out_features=1024, bias=True)
    (2): BatchNorm1d(1024, eps=1e-05, momentum=0.1, affine=True, track_running_stats=True)
    (3): ReLU()
  )
  (decoder): PointGenCon(
    (conv1): Conv1d(2051, 2051, kernel_size=(1,), stride=(1,))
    (conv2): Conv1d(2051, 1025, kernel_size=(1,), stride=(1,))
    (conv3): Conv1d(1025, 512, kernel_size=(1,), stride=(1,))
    (conv4): Conv1d(512, 256, kernel_size=(1,), stride=(1,))
    (conv5): Conv1d(256, 128, kernel_size=(1,), stride=(1,))
    (conv6): Conv1d(128, 128, kernel_size=(1,), stride=(1,))
    (conv7): Conv1d(128, 128, kernel_size=(1,), stride=(1,))
    (conv8): Conv1d(128, 128, kernel_size=(1,), stride=(1,))
    (conv9): Conv1d(128, 3, kernel_size=(1,), stride=(1,))
    (th): Tanh()
    (bn1): BatchNorm1d(2051, eps=1e-05, momentum=0.1, affine=True, track_running_stats=True)
    (bn2): BatchNorm1d(1025, eps=1e-05, momentum=0.1, affine=True, track_running_stats=True)
    (bn3): BatchNorm1d(512, eps=1e-05, momentum=0.1, affine=True, track_running_stats=True)
    (bn4): BatchNorm1d(256, eps=1e-05, momentum=0.1, affine=True, track_running_stats=True)
    (bn5): BatchNorm1d(128, eps=1e-05, momentum=0.1, affine=True, track_running_stats=True)
    (bn6): BatchNorm1d(128, eps=1e-05, momentum=0.1, affine=True, track_running_stats=True)
    (bn7): BatchNorm1d(128, eps=1e-05, momentum=0.1, affine=True, track_running_stats=True)
    (bn8): BatchNorm1d(128, eps=1e-05, momentum=0.1, affine=True, track_running_stats=True)
  )
)
json_stats: {"val_loss_L2_smpl": 0.11632084189303618, "train_loss_L2_smpl": 0.2691662013530731, "epoch": 0, "lr": 0.001, "env": "shape_completion"}
json_stats: {"val_loss_L2_smpl": 0.12569192716931207, "train_loss_L2_smpl": 0.20236876606941223, "epoch": 1, "lr": 0.001, "env": "shape_completion"}
json_stats: {"val_loss_L2_smpl": 0.12004433117760811, "train_loss_L2_smpl": 0.1721574068069458, "epoch": 2, "lr": 0.001, "env": "shape_completion"}
…
json_stats: {"val_loss_L2_smpl": 0.11876849009840484, "train_loss_L2_smpl": 0.13414815068244934, "epoch": 4, "lr": 0.001, "env": "shape_completion"}
json_stats: {"val_loss_L2_smpl": 0.10622229649905693, "train_loss_L2_smpl": 0.14606973528862, "epoch": 5, "lr": 0.001, "env": "shape_completion"}
json_stats: {"val_loss_L2_smpl": 0.11287962226017365, "train_loss_L2_smpl": 0.1476709246635437, "epoch": 6, "lr": 0.001, "env": "shape_completion"}
json_stats: {"val_loss_L2_smpl": 0.10788726574415763, "train_loss_L2_smpl": 0.15634174644947052, "epoch": 7, "lr": 0.001, "env": "shape_completion"}
CompletionNet(
  (encoder): Sequential(
    (0): PointNetfeat(
      (stn): STN3d(
        (conv1): Conv1d(3, 64, kernel_size=(1,), stride=(1,))
        (conv2): Conv1d(64, 128, kernel_size=(1,), stride=(1,))
        (conv3): Conv1d(128, 1024, kernel_size=(1,), stride=(1,))
        (fc1): Linear(in_features=1024, out_features=512, bias=True)
        (fc2): Linear(in_features=512, out_features=256, bias=True)
        (fc3): Linear(in_features=256, out_features=1, bias=True)
        (relu): ReLU()
      )
      (conv1): Conv1d(3, 64, kernel_size=(1,), stride=(1,))
      (conv2): Conv1d(64, 128, kernel_size=(1,), stride=(1,))
      (conv3): Conv1d(128, 1024, kernel_size=(1,), stride=(1,))
      (bn1): BatchNorm1d(64, eps=1e-05, momentum=0.1, affine=True, track_running_stats=True)
      (bn2): BatchNorm1d(128, eps=1e-05, momentum=0.1, affine=True, track_running_stats=True)
      (bn3): BatchNorm1d(1024, eps=1e-05, momentum=0.1, affine=True, track_running_stats=True)
    )
    (1): Linear(in_features=1024, out_features=1024, bias=True)
    (2): BatchNorm1d(1024, eps=1e-05, momentum=0.1, affine=True, track_running_stats=True)
    (3): ReLU()
  )
  (decoder): PointGenCon(
    (conv1): Conv1d(2051, 2051, kernel_size=(1,), stride=(1,))
    (conv2): Conv1d(2051, 1025, kernel_size=(1,), stride=(1,))
    (conv3): Conv1d(1025, 512, kernel_size=(1,), stride=(1,))
    (conv4): Conv1d(512, 256, kernel_size=(1,), stride=(1,))
    (conv5): Conv1d(256, 128, kernel_size=(1,), stride=(1,))
    (conv6): Conv1d(128, 128, kernel_size=(1,), stride=(1,))
    (conv7): Conv1d(128, 128, kernel_size=(1,), stride=(1,))
    (conv8): Conv1d(128, 128, kernel_size=(1,), stride=(1,))
    (conv9): Conv1d(128, 3, kernel_size=(1,), stride=(1,))
    (th): Tanh()
    (bn1): BatchNorm1d(2051, eps=1e-05, momentum=0.1, affine=True, track_running_stats=True)
    (bn2): BatchNorm1d(1025, eps=1e-05, momentum=0.1, affine=True, track_running_stats=True)
    (bn3): BatchNorm1d(512, eps=1e-05, momentum=0.1, affine=True, track_running_stats=True)
    (bn4): BatchNorm1d(256, eps=1e-05, momentum=0.1, affine=True, track_running_stats=True)
    (bn5): BatchNorm1d(128, eps=1e-05, momentum=0.1, affine=True, track_running_stats=True)
    (bn6): BatchNorm1d(128, eps=1e-05, momentum=0.1, affine=True, track_running_stats=True)
    (bn7): BatchNorm1d(128, eps=1e-05, momentum=0.1, affine=True, track_running_stats=True)
    (bn8): BatchNorm1d(128, eps=1e-05, momentum=0.1, affine=True, track_running_stats=True)
  )
)
json_stats: {"val_loss_L2_smpl": 0.11985281009193173, "train_loss_L2_smpl": 0.2837229371070862, "epoch": 0, "lr": 0.001, "env": "shape_completion"}
CompletionNet(
  (encoder): Sequential(
    (0): PointNetfeat(
      (stn): STN3d(
        (conv1): Conv1d(3, 64, kernel_size=(1,), stride=(1,))
        (conv2): Conv1d(64, 128, kernel_size=(1,), stride=(1,))
        (conv3): Conv1d(128, 1024, kernel_size=(1,), stride=(1,))
        (fc1): Linear(in_features=1024, out_features=512, bias=True)
        (fc2): Linear(in_features=512, out_features=256, bias=True)
        (fc3): Linear(in_features=256, out_features=1, bias=True)
        (relu): ReLU()
      )
      (conv1): Conv1d(3, 64, kernel_size=(1,), stride=(1,))
      (conv2): Conv1d(64, 128, kernel_size=(1,), stride=(1,))
      (conv3): Conv1d(128, 1024, kernel_size=(1,), stride=(1,))
      (bn1): BatchNorm1d(64, eps=1e-05, momentum=0.1, affine=True, track_running_stats=True)
      (bn2): BatchNorm1d(128, eps=1e-05, momentum=0.1, affine=True, track_running_stats=True)
      (bn3): BatchNorm1d(1024, eps=1e-05, momentum=0.1, affine=True, track_running_stats=True)
    )
    (1): Linear(in_features=1024, out_features=1024, bias=True)
    (2): BatchNorm1d(1024, eps=1e-05, momentum=0.1, affine=True, track_running_stats=True)
    (3): ReLU()
  )
  (decoder): PointGenCon(
    (conv1): Conv1d(2051, 2051, kernel_size=(1,), stride=(1,))
    (conv2): Conv1d(2051, 1025, kernel_size=(1,), stride=(1,))
    (conv3): Conv1d(1025, 512, kernel_size=(1,), stride=(1,))
    (conv4): Conv1d(512, 256, kernel_size=(1,), stride=(1,))
    (conv5): Conv1d(256, 128, kernel_size=(1,), stride=(1,))
    (conv6): Conv1d(128, 128, kernel_size=(1,), stride=(1,))
    (conv7): Conv1d(128, 128, kernel_size=(1,), stride=(1,))
    (conv8): Conv1d(128, 128, kernel_size=(1,), stride=(1,))
    (conv9): Conv1d(128, 3, kernel_size=(1,), stride=(1,))
    (th): Tanh()
    (bn1): BatchNorm1d(2051, eps=1e-05, momentum=0.1, affine=True, track_running_stats=True)
    (bn2): BatchNorm1d(1025, eps=1e-05, momentum=0.1, affine=True, track_running_stats=True)
    (bn3): BatchNorm1d(512, eps=1e-05, momentum=0.1, affine=True, track_running_stats=True)
    (bn4): BatchNorm1d(256, eps=1e-05, momentum=0.1, affine=True, track_running_stats=True)
    (bn5): BatchNorm1d(128, eps=1e-05, momentum=0.1, affine=True, track_running_stats=True)
    (bn6): BatchNorm1d(128, eps=1e-05, momentum=0.1, affine=True, track_running_stats=True)
    (bn7): BatchNorm1d(128, eps=1e-05, momentum=0.1, affine=True, track_running_stats=True)
    (bn8): BatchNorm1d(128, eps=1e-05, momentum=0.1, affine=True, track_running_stats=True)
  )
)
json_stats: {"val_loss": 0.12872348424875837, "train_loss": 0.26101207733154297, "epoch": 0, "lr": 0.001, "env": "shape_completion"}
json_stats: {"val_loss": 0.12390919609387421, "train_loss": 0.22088423371315002, "epoch": 1, "lr": 0.001, "env": "shape_completion"}
CompletionNet(
  (encoder): Sequential(
    (0): PointNetfeat(
      (stn): STN3d(
        (conv1): Conv1d(3, 64, kernel_size=(1,), stride=(1,))
        (conv2): Conv1d(64, 128, kernel_size=(1,), stride=(1,))
        (conv3): Conv1d(128, 1024, kernel_size=(1,), stride=(1,))
        (fc1): Linear(in_features=1024, out_features=512, bias=True)
        (fc2): Linear(in_features=512, out_features=256, bias=True)
        (fc3): Linear(in_features=256, out_features=1, bias=True)
        (relu): ReLU()
      )
      (conv1): Conv1d(3, 64, kernel_size=(1,), stride=(1,))
      (conv2): Conv1d(64, 128, kernel_size=(1,), stride=(1,))
      (conv3): Conv1d(128, 1024, kernel_size=(1,), stride=(1,))
      (bn1): BatchNorm1d(64, eps=1e-05, momentum=0.1, affine=True, track_running_stats=True)
      (bn2): BatchNorm1d(128, eps=1e-05, momentum=0.1, affine=True, track_running_stats=True)
      (bn3): BatchNorm1d(1024, eps=1e-05, momentum=0.1, affine=True, track_running_stats=True)
    )
    (1): Linear(in_features=1024, out_features=1024, bias=True)
    (2): BatchNorm1d(1024, eps=1e-05, momentum=0.1, affine=True, track_running_stats=True)
    (3): ReLU()
  )
  (decoder): PointGenCon(
    (conv1): Conv1d(2051, 2051, kernel_size=(1,), stride=(1,))
    (conv2): Conv1d(2051, 1025, kernel_size=(1,), stride=(1,))
    (conv3): Conv1d(1025, 512, kernel_size=(1,), stride=(1,))
    (conv4): Conv1d(512, 256, kernel_size=(1,), stride=(1,))
    (conv5): Conv1d(256, 128, kernel_size=(1,), stride=(1,))
    (conv6): Conv1d(128, 128, kernel_size=(1,), stride=(1,))
    (conv7): Conv1d(128, 128, kernel_size=(1,), stride=(1,))
    (conv8): Conv1d(128, 128, kernel_size=(1,), stride=(1,))
    (conv9): Conv1d(128, 3, kernel_size=(1,), stride=(1,))
    (th): Tanh()
    (bn1): BatchNorm1d(2051, eps=1e-05, momentum=0.1, affine=True, track_running_stats=True)
    (bn2): BatchNorm1d(1025, eps=1e-05, momentum=0.1, affine=True, track_running_stats=True)
    (bn3): BatchNorm1d(512, eps=1e-05, momentum=0.1, affine=True, track_running_stats=True)
    (bn4): BatchNorm1d(256, eps=1e-05, momentum=0.1, affine=True, track_running_stats=True)
    (bn5): BatchNorm1d(128, eps=1e-05, momentum=0.1, affine=True, track_running_stats=True)
    (bn6): BatchNorm1d(128, eps=1e-05, momentum=0.1, affine=True, track_running_stats=True)
    (bn7): BatchNorm1d(128, eps=1e-05, momentum=0.1, affine=True, track_running_stats=True)
    (bn8): BatchNorm1d(128, eps=1e-05, momentum=0.1, affine=True, track_running_stats=True)
  )
)
CompletionNet(
  (encoder): Sequential(
    (0): PointNetfeat(
      (stn): STN3d(
        (conv1): Conv1d(3, 64, kernel_size=(1,), stride=(1,))
        (conv2): Conv1d(64, 128, kernel_size=(1,), stride=(1,))
        (conv3): Conv1d(128, 1024, kernel_size=(1,), stride=(1,))
        (fc1): Linear(in_features=1024, out_features=512, bias=True)
        (fc2): Linear(in_features=512, out_features=256, bias=True)
        (fc3): Linear(in_features=256, out_features=1, bias=True)
        (relu): ReLU()
      )
      (conv1): Conv1d(3, 64, kernel_size=(1,), stride=(1,))
      (conv2): Conv1d(64, 128, kernel_size=(1,), stride=(1,))
      (conv3): Conv1d(128, 1024, kernel_size=(1,), stride=(1,))
      (bn1): BatchNorm1d(64, eps=1e-05, momentum=0.1, affine=True, track_running_stats=True)
      (bn2): BatchNorm1d(128, eps=1e-05, momentum=0.1, affine=True, track_running_stats=True)
      (bn3): BatchNorm1d(1024, eps=1e-05, momentum=0.1, affine=True, track_running_stats=True)
    )
    (1): Linear(in_features=1024, out_features=1024, bias=True)
    (2): BatchNorm1d(1024, eps=1e-05, momentum=0.1, affine=True, track_running_stats=True)
    (3): ReLU()
  )
  (decoder): PointGenCon(
    (conv1): Conv1d(2051, 2051, kernel_size=(1,), stride=(1,))
    (conv2): Conv1d(2051, 1025, kernel_size=(1,), stride=(1,))
    (conv3): Conv1d(1025, 512, kernel_size=(1,), stride=(1,))
    (conv4): Conv1d(512, 256, kernel_size=(1,), stride=(1,))
    (conv5): Conv1d(256, 128, kernel_size=(1,), stride=(1,))
    (conv6): Conv1d(128, 128, kernel_size=(1,), stride=(1,))
    (conv7): Conv1d(128, 128, kernel_size=(1,), stride=(1,))
    (conv8): Conv1d(128, 128, kernel_size=(1,), stride=(1,))
    (conv9): Conv1d(128, 3, kernel_size=(1,), stride=(1,))
    (th): Tanh()
    (bn1): BatchNorm1d(2051, eps=1e-05, momentum=0.1, affine=True, track_running_stats=True)
    (bn2): BatchNorm1d(1025, eps=1e-05, momentum=0.1, affine=True, track_running_stats=True)
    (bn3): BatchNorm1d(512, eps=1e-05, momentum=0.1, affine=True, track_running_stats=True)
    (bn4): BatchNorm1d(256, eps=1e-05, momentum=0.1, affine=True, track_running_stats=True)
    (bn5): BatchNorm1d(128, eps=1e-05, momentum=0.1, affine=True, track_running_stats=True)
    (bn6): BatchNorm1d(128, eps=1e-05, momentum=0.1, affine=True, track_running_stats=True)
    (bn7): BatchNorm1d(128, eps=1e-05, momentum=0.1, affine=True, track_running_stats=True)
    (bn8): BatchNorm1d(128, eps=1e-05, momentum=0.1, affine=True, track_running_stats=True)
  )
)
json_stats: {"val_loss": 0.12894029277094946, "train_loss": 0.2895990014076233, "epoch": 0, "lr": 0.001, "env": "shape_completion"}
json_stats: {"val_loss": 0.10719775882353338, "train_loss": 0.23443537950515747, "epoch": 1, "lr": 0.001, "env": "shape_completion"}
json_stats: {"val_loss": 0.12151852829897078, "train_loss": 0.1671701818704605, "epoch": 2, "lr": 0.001, "env": "shape_completion"}
json_stats: {"val_loss": 0.12885369209540545, "train_loss": 0.15762203931808472, "epoch": 3, "lr": 0.001, "env": "shape_completion"}
CompletionNet(
  (encoder): Sequential(
    (0): PointNetfeat(
      (stn): STN3d(
        (conv1): Conv1d(3, 64, kernel_size=(1,), stride=(1,))
        (conv2): Conv1d(64, 128, kernel_size=(1,), stride=(1,))
        (conv3): Conv1d(128, 1024, kernel_size=(1,), stride=(1,))
        (fc1): Linear(in_features=1024, out_features=512, bias=True)
        (fc2): Linear(in_features=512, out_features=256, bias=True)
        (fc3): Linear(in_features=256, out_features=1, bias=True)
        (relu): ReLU()
      )
      (conv1): Conv1d(3, 64, kernel_size=(1,), stride=(1,))
      (conv2): Conv1d(64, 128, kernel_size=(1,), stride=(1,))
      (conv3): Conv1d(128, 1024, kernel_size=(1,), stride=(1,))
      (bn1): BatchNorm1d(64, eps=1e-05, momentum=0.1, affine=True, track_running_stats=True)
      (bn2): BatchNorm1d(128, eps=1e-05, momentum=0.1, affine=True, track_running_stats=True)
      (bn3): BatchNorm1d(1024, eps=1e-05, momentum=0.1, affine=True, track_running_stats=True)
    )
    (1): Linear(in_features=1024, out_features=1024, bias=True)
    (2): BatchNorm1d(1024, eps=1e-05, momentum=0.1, affine=True, track_running_stats=True)
    (3): ReLU()
  )
  (decoder): PointGenCon(
    (conv1): Conv1d(2051, 2051, kernel_size=(1,), stride=(1,))
    (conv2): Conv1d(2051, 1025, kernel_size=(1,), stride=(1,))
    (conv3): Conv1d(1025, 512, kernel_size=(1,), stride=(1,))
    (conv4): Conv1d(512, 256, kernel_size=(1,), stride=(1,))
    (conv5): Conv1d(256, 128, kernel_size=(1,), stride=(1,))
    (conv6): Conv1d(128, 128, kernel_size=(1,), stride=(1,))
    (conv7): Conv1d(128, 128, kernel_size=(1,), stride=(1,))
    (conv8): Conv1d(128, 128, kernel_size=(1,), stride=(1,))
    (conv9): Conv1d(128, 3, kernel_size=(1,), stride=(1,))
    (th): Tanh()
    (bn1): BatchNorm1d(2051, eps=1e-05, momentum=0.1, affine=True, track_running_stats=True)
    (bn2): BatchNorm1d(1025, eps=1e-05, momentum=0.1, affine=True, track_running_stats=True)
    (bn3): BatchNorm1d(512, eps=1e-05, momentum=0.1, affine=True, track_running_stats=True)
    (bn4): BatchNorm1d(256, eps=1e-05, momentum=0.1, affine=True, track_running_stats=True)
    (bn5): BatchNorm1d(128, eps=1e-05, momentum=0.1, affine=True, track_running_stats=True)
    (bn6): BatchNorm1d(128, eps=1e-05, momentum=0.1, affine=True, track_running_stats=True)
    (bn7): BatchNorm1d(128, eps=1e-05, momentum=0.1, affine=True, track_running_stats=True)
    (bn8): BatchNorm1d(128, eps=1e-05, momentum=0.1, affine=True, track_running_stats=True)
  )
)
json_stats: {"val_loss": 0.1145920611641284, "train_loss": 0.31169751286506653, "epoch": 0, "lr": 0.001, "env": "shape_completion"}
json_stats: {"val_loss": 0.11747599429740913, "train_loss": 0.19686643779277802, "epoch": 1, "lr": 0.001, "env": "shape_completion"}
json_stats: {"val_loss": 0.1154402901410087, "train_loss": 0.1592758148908615, "epoch": 2, "lr": 0.001, "env": "shape_completion"}
…
json_stats: {"val_loss": 0.11177985949148585, "train_loss": 0.12139812111854553, "epoch": 9, "lr": 0.001, "env": "shape_completion"}
json_stats: {"val_loss": 0.10803682829891847, "train_loss": 0.15393610298633575, "epoch": 10, "lr": 0.001, "env": "shape_completion"}
json_stats: {"val_loss": 0.10258622668928978, "train_loss": 0.1325104534626007, "epoch": 11, "lr": 0.001, "env": "shape_completion"}
json_stats: {"val_loss": 0.10983587296848092, "train_loss": 0.11373145878314972, "epoch": 12, "lr": 0.001, "env": "shape_completion"}
CompletionNet(
  (encoder): Sequential(
    (0): PointNetfeat(
      (stn): STN3d(
        (conv1): Conv1d(3, 64, kernel_size=(1,), stride=(1,))
        (conv2): Conv1d(64, 128, kernel_size=(1,), stride=(1,))
        (conv3): Conv1d(128, 1024, kernel_size=(1,), stride=(1,))
        (fc1): Linear(in_features=1024, out_features=512, bias=True)
        (fc2): Linear(in_features=512, out_features=256, bias=True)
        (fc3): Linear(in_features=256, out_features=1, bias=True)
        (relu): ReLU()
      )
      (conv1): Conv1d(3, 64, kernel_size=(1,), stride=(1,))
      (conv2): Conv1d(64, 128, kernel_size=(1,), stride=(1,))
      (conv3): Conv1d(128, 1024, kernel_size=(1,), stride=(1,))
      (bn1): BatchNorm1d(64, eps=1e-05, momentum=0.1, affine=True, track_running_stats=True)
      (bn2): BatchNorm1d(128, eps=1e-05, momentum=0.1, affine=True, track_running_stats=True)
      (bn3): BatchNorm1d(1024, eps=1e-05, momentum=0.1, affine=True, track_running_stats=True)
    )
    (1): Linear(in_features=1024, out_features=1024, bias=True)
    (2): BatchNorm1d(1024, eps=1e-05, momentum=0.1, affine=True, track_running_stats=True)
    (3): ReLU()
  )
  (decoder): PointGenCon(
    (conv1): Conv1d(2051, 2051, kernel_size=(1,), stride=(1,))
    (conv2): Conv1d(2051, 1025, kernel_size=(1,), stride=(1,))
    (conv3): Conv1d(1025, 512, kernel_size=(1,), stride=(1,))
    (conv4): Conv1d(512, 256, kernel_size=(1,), stride=(1,))
    (conv5): Conv1d(256, 128, kernel_size=(1,), stride=(1,))
    (conv6): Conv1d(128, 128, kernel_size=(1,), stride=(1,))
    (conv7): Conv1d(128, 128, kernel_size=(1,), stride=(1,))
    (conv8): Conv1d(128, 128, kernel_size=(1,), stride=(1,))
    (conv9): Conv1d(128, 3, kernel_size=(1,), stride=(1,))
    (th): Tanh()
    (bn1): BatchNorm1d(2051, eps=1e-05, momentum=0.1, affine=True, track_running_stats=True)
    (bn2): BatchNorm1d(1025, eps=1e-05, momentum=0.1, affine=True, track_running_stats=True)
    (bn3): BatchNorm1d(512, eps=1e-05, momentum=0.1, affine=True, track_running_stats=True)
    (bn4): BatchNorm1d(256, eps=1e-05, momentum=0.1, affine=True, track_running_stats=True)
    (bn5): BatchNorm1d(128, eps=1e-05, momentum=0.1, affine=True, track_running_stats=True)
    (bn6): BatchNorm1d(128, eps=1e-05, momentum=0.1, affine=True, track_running_stats=True)
    (bn7): BatchNorm1d(128, eps=1e-05, momentum=0.1, affine=True, track_running_stats=True)
    (bn8): BatchNorm1d(128, eps=1e-05, momentum=0.1, affine=True, track_running_stats=True)
  )
)
json_stats: {"val_loss": 0.12178246975980889, "train_loss": 0.2760133445262909, "epoch": 0, "lr": 0.001, "env": "shape_completion"}
json_stats: {"val_loss": 0.12404661398609228, "train_loss": 0.25278234481811523, "epoch": 1, "lr": 0.001, "env": "shape_completion"}
json_stats: {"val_loss": 0.11723102553092032, "train_loss": 0.18368585407733917, "epoch": 2, "lr": 0.001, "env": "shape_completion"}
json_stats: {"val_loss": 0.12330181870428678, "train_loss": 0.1728626787662506, "epoch": 3, "lr": 0.001, "env": "shape_completion"}
json_stats: {"val_loss": 0.11690243122711347, "train_loss": 0.1523580551147461, "epoch": 4, "lr": 0.001, "env": "shape_completion"}
CompletionNet(
  (encoder): Sequential(
    (0): PointNetfeat(
      (stn): STN3d(
        (conv1): Conv1d(3, 64, kernel_size=(1,), stride=(1,))
        (conv2): Conv1d(64, 128, kernel_size=(1,), stride=(1,))
        (conv3): Conv1d(128, 1024, kernel_size=(1,), stride=(1,))
        (fc1): Linear(in_features=1024, out_features=512, bias=True)
        (fc2): Linear(in_features=512, out_features=256, bias=True)
        (fc3): Linear(in_features=256, out_features=1, bias=True)
        (relu): ReLU()
      )
      (conv1): Conv1d(3, 64, kernel_size=(1,), stride=(1,))
      (conv2): Conv1d(64, 128, kernel_size=(1,), stride=(1,))
      (conv3): Conv1d(128, 1024, kernel_size=(1,), stride=(1,))
      (bn1): BatchNorm1d(64, eps=1e-05, momentum=0.1, affine=True, track_running_stats=True)
      (bn2): BatchNorm1d(128, eps=1e-05, momentum=0.1, affine=True, track_running_stats=True)
      (bn3): BatchNorm1d(1024, eps=1e-05, momentum=0.1, affine=True, track_running_stats=True)
    )
    (1): Linear(in_features=1024, out_features=1024, bias=True)
    (2): BatchNorm1d(1024, eps=1e-05, momentum=0.1, affine=True, track_running_stats=True)
    (3): ReLU()
  )
  (decoder): PointGenCon(
    (conv1): Conv1d(2051, 2051, kernel_size=(1,), stride=(1,))
    (conv2): Conv1d(2051, 1025, kernel_size=(1,), stride=(1,))
    (conv3): Conv1d(1025, 512, kernel_size=(1,), stride=(1,))
    (conv4): Conv1d(512, 256, kernel_size=(1,), stride=(1,))
    (conv5): Conv1d(256, 128, kernel_size=(1,), stride=(1,))
    (conv6): Conv1d(128, 128, kernel_size=(1,), stride=(1,))
    (conv7): Conv1d(128, 128, kernel_size=(1,), stride=(1,))
    (conv8): Conv1d(128, 128, kernel_size=(1,), stride=(1,))
    (conv9): Conv1d(128, 3, kernel_size=(1,), stride=(1,))
    (th): Tanh()
    (bn1): BatchNorm1d(2051, eps=1e-05, momentum=0.1, affine=True, track_running_stats=True)
    (bn2): BatchNorm1d(1025, eps=1e-05, momentum=0.1, affine=True, track_running_stats=True)
    (bn3): BatchNorm1d(512, eps=1e-05, momentum=0.1, affine=True, track_running_stats=True)
    (bn4): BatchNorm1d(256, eps=1e-05, momentum=0.1, affine=True, track_running_stats=True)
    (bn5): BatchNorm1d(128, eps=1e-05, momentum=0.1, affine=True, track_running_stats=True)
    (bn6): BatchNorm1d(128, eps=1e-05, momentum=0.1, affine=True, track_running_stats=True)
    (bn7): BatchNorm1d(128, eps=1e-05, momentum=0.1, affine=True, track_running_stats=True)
    (bn8): BatchNorm1d(128, eps=1e-05, momentum=0.1, affine=True, track_running_stats=True)
  )
)
json_stats: {"val_loss": 0.11921497477818259, "train_loss": 0.28786975145339966, "epoch": 0, "lr": 0.001, "env": "shape_completion"}
json_stats: {"val_loss": 0.13270668758625895, "train_loss": 0.22562235593795776, "epoch": 1, "lr": 0.001, "env": "shape_completion"}
json_stats: {"val_loss": 0.11395350754440926, "train_loss": 0.18469040095806122, "epoch": 2, "lr": 0.001, "env": "shape_completion"}
json_stats: {"val_loss": 0.12714478959188702, "train_loss": 0.1545681357383728, "epoch": 3, "lr": 0.001, "env": "shape_completion"}
json_stats: {"val_loss": 0.12026376642297804, "train_loss": 0.14208868145942688, "epoch": 4, "lr": 0.001, "env": "shape_completion"}
json_stats: {"val_loss": 0.10504102081319405, "train_loss": 0.1756274551153183, "epoch": 5, "lr": 0.001, "env": "shape_completion"}
json_stats: {"val_loss": 0.10726398361941075, "train_loss": 0.15780332684516907, "epoch": 6, "lr": 0.001, "env": "shape_completion"}
CompletionNet(
  (encoder): Sequential(
    (0): PointNetfeat(
      (stn): STN3d(
        (conv1): Conv1d(3, 64, kernel_size=(1,), stride=(1,))
        (conv2): Conv1d(64, 128, kernel_size=(1,), stride=(1,))
        (conv3): Conv1d(128, 1024, kernel_size=(1,), stride=(1,))
        (fc1): Linear(in_features=1024, out_features=512, bias=True)
        (fc2): Linear(in_features=512, out_features=256, bias=True)
        (fc3): Linear(in_features=256, out_features=1, bias=True)
        (relu): ReLU()
      )
      (conv1): Conv1d(3, 64, kernel_size=(1,), stride=(1,))
      (conv2): Conv1d(64, 128, kernel_size=(1,), stride=(1,))
      (conv3): Conv1d(128, 1024, kernel_size=(1,), stride=(1,))
      (bn1): BatchNorm1d(64, eps=1e-05, momentum=0.1, affine=True, track_running_stats=True)
      (bn2): BatchNorm1d(128, eps=1e-05, momentum=0.1, affine=True, track_running_stats=True)
      (bn3): BatchNorm1d(1024, eps=1e-05, momentum=0.1, affine=True, track_running_stats=True)
    )
    (1): Linear(in_features=1024, out_features=1024, bias=True)
    (2): BatchNorm1d(1024, eps=1e-05, momentum=0.1, affine=True, track_running_stats=True)
    (3): ReLU()
  )
  (decoder): PointGenCon(
    (conv1): Conv1d(2051, 2051, kernel_size=(1,), stride=(1,))
    (conv2): Conv1d(2051, 1025, kernel_size=(1,), stride=(1,))
    (conv3): Conv1d(1025, 512, kernel_size=(1,), stride=(1,))
    (conv4): Conv1d(512, 256, kernel_size=(1,), stride=(1,))
    (conv5): Conv1d(256, 128, kernel_size=(1,), stride=(1,))
    (conv6): Conv1d(128, 128, kernel_size=(1,), stride=(1,))
    (conv7): Conv1d(128, 128, kernel_size=(1,), stride=(1,))
    (conv8): Conv1d(128, 128, kernel_size=(1,), stride=(1,))
    (conv9): Conv1d(128, 3, kernel_size=(1,), stride=(1,))
    (th): Tanh()
    (bn1): BatchNorm1d(2051, eps=1e-05, momentum=0.1, affine=True, track_running_stats=True)
    (bn2): BatchNorm1d(1025, eps=1e-05, momentum=0.1, affine=True, track_running_stats=True)
    (bn3): BatchNorm1d(512, eps=1e-05, momentum=0.1, affine=True, track_running_stats=True)
    (bn4): BatchNorm1d(256, eps=1e-05, momentum=0.1, affine=True, track_running_stats=True)
    (bn5): BatchNorm1d(128, eps=1e-05, momentum=0.1, affine=True, track_running_stats=True)
    (bn6): BatchNorm1d(128, eps=1e-05, momentum=0.1, affine=True, track_running_stats=True)
    (bn7): BatchNorm1d(128, eps=1e-05, momentum=0.1, affine=True, track_running_stats=True)
    (bn8): BatchNorm1d(128, eps=1e-05, momentum=0.1, affine=True, track_running_stats=True)
  )
)
CompletionNet(
  (encoder): Sequential(
    (0): PointNetfeat(
      (stn): STN3d(
        (conv1): Conv1d(3, 64, kernel_size=(1,), stride=(1,))
        (conv2): Conv1d(64, 128, kernel_size=(1,), stride=(1,))
        (conv3): Conv1d(128, 1024, kernel_size=(1,), stride=(1,))
        (fc1): Linear(in_features=1024, out_features=512, bias=True)
        (fc2): Linear(in_features=512, out_features=256, bias=True)
        (fc3): Linear(in_features=256, out_features=1, bias=True)
        (relu): ReLU()
      )
      (conv1): Conv1d(3, 64, kernel_size=(1,), stride=(1,))
      (conv2): Conv1d(64, 128, kernel_size=(1,), stride=(1,))
      (conv3): Conv1d(128, 1024, kernel_size=(1,), stride=(1,))
      (bn1): BatchNorm1d(64, eps=1e-05, momentum=0.1, affine=True, track_running_stats=True)
      (bn2): BatchNorm1d(128, eps=1e-05, momentum=0.1, affine=True, track_running_stats=True)
      (bn3): BatchNorm1d(1024, eps=1e-05, momentum=0.1, affine=True, track_running_stats=True)
    )
    (1): Linear(in_features=1024, out_features=1024, bias=True)
    (2): BatchNorm1d(1024, eps=1e-05, momentum=0.1, affine=True, track_running_stats=True)
    (3): ReLU()
  )
  (decoder): PointGenCon(
    (conv1): Conv1d(2051, 2051, kernel_size=(1,), stride=(1,))
    (conv2): Conv1d(2051, 1025, kernel_size=(1,), stride=(1,))
    (conv3): Conv1d(1025, 512, kernel_size=(1,), stride=(1,))
    (conv4): Conv1d(512, 256, kernel_size=(1,), stride=(1,))
    (conv5): Conv1d(256, 128, kernel_size=(1,), stride=(1,))
    (conv6): Conv1d(128, 128, kernel_size=(1,), stride=(1,))
    (conv7): Conv1d(128, 128, kernel_size=(1,), stride=(1,))
    (conv8): Conv1d(128, 128, kernel_size=(1,), stride=(1,))
    (conv9): Conv1d(128, 3, kernel_size=(1,), stride=(1,))
    (th): Tanh()
    (bn1): BatchNorm1d(2051, eps=1e-05, momentum=0.1, affine=True, track_running_stats=True)
    (bn2): BatchNorm1d(1025, eps=1e-05, momentum=0.1, affine=True, track_running_stats=True)
    (bn3): BatchNorm1d(512, eps=1e-05, momentum=0.1, affine=True, track_running_stats=True)
    (bn4): BatchNorm1d(256, eps=1e-05, momentum=0.1, affine=True, track_running_stats=True)
    (bn5): BatchNorm1d(128, eps=1e-05, momentum=0.1, affine=True, track_running_stats=True)
    (bn6): BatchNorm1d(128, eps=1e-05, momentum=0.1, affine=True, track_running_stats=True)
    (bn7): BatchNorm1d(128, eps=1e-05, momentum=0.1, affine=True, track_running_stats=True)
    (bn8): BatchNorm1d(128, eps=1e-05, momentum=0.1, affine=True, track_running_stats=True)
  )
)
CompletionNet(
  (encoder): Sequential(
    (0): PointNetfeat(
      (stn): STN3d(
        (conv1): Conv1d(3, 64, kernel_size=(1,), stride=(1,))
        (conv2): Conv1d(64, 128, kernel_size=(1,), stride=(1,))
        (conv3): Conv1d(128, 1024, kernel_size=(1,), stride=(1,))
        (fc1): Linear(in_features=1024, out_features=512, bias=True)
        (fc2): Linear(in_features=512, out_features=256, bias=True)
        (fc3): Linear(in_features=256, out_features=1, bias=True)
        (relu): ReLU()
      )
      (conv1): Conv1d(3, 64, kernel_size=(1,), stride=(1,))
      (conv2): Conv1d(64, 128, kernel_size=(1,), stride=(1,))
      (conv3): Conv1d(128, 1024, kernel_size=(1,), stride=(1,))
      (bn1): BatchNorm1d(64, eps=1e-05, momentum=0.1, affine=True, track_running_stats=True)
      (bn2): BatchNorm1d(128, eps=1e-05, momentum=0.1, affine=True, track_running_stats=True)
      (bn3): BatchNorm1d(1024, eps=1e-05, momentum=0.1, affine=True, track_running_stats=True)
    )
    (1): Linear(in_features=1024, out_features=1024, bias=True)
    (2): BatchNorm1d(1024, eps=1e-05, momentum=0.1, affine=True, track_running_stats=True)
    (3): ReLU()
  )
  (decoder): PointGenCon(
    (conv1): Conv1d(2051, 2051, kernel_size=(1,), stride=(1,))
    (conv2): Conv1d(2051, 1025, kernel_size=(1,), stride=(1,))
    (conv3): Conv1d(1025, 512, kernel_size=(1,), stride=(1,))
    (conv4): Conv1d(512, 256, kernel_size=(1,), stride=(1,))
    (conv5): Conv1d(256, 128, kernel_size=(1,), stride=(1,))
    (conv6): Conv1d(128, 128, kernel_size=(1,), stride=(1,))
    (conv7): Conv1d(128, 128, kernel_size=(1,), stride=(1,))
    (conv8): Conv1d(128, 128, kernel_size=(1,), stride=(1,))
    (conv9): Conv1d(128, 3, kernel_size=(1,), stride=(1,))
    (th): Tanh()
    (bn1): BatchNorm1d(2051, eps=1e-05, momentum=0.1, affine=True, track_running_stats=True)
    (bn2): BatchNorm1d(1025, eps=1e-05, momentum=0.1, affine=True, track_running_stats=True)
    (bn3): BatchNorm1d(512, eps=1e-05, momentum=0.1, affine=True, track_running_stats=True)
    (bn4): BatchNorm1d(256, eps=1e-05, momentum=0.1, affine=True, track_running_stats=True)
    (bn5): BatchNorm1d(128, eps=1e-05, momentum=0.1, affine=True, track_running_stats=True)
    (bn6): BatchNorm1d(128, eps=1e-05, momentum=0.1, affine=True, track_running_stats=True)
    (bn7): BatchNorm1d(128, eps=1e-05, momentum=0.1, affine=True, track_running_stats=True)
    (bn8): BatchNorm1d(128, eps=1e-05, momentum=0.1, affine=True, track_running_stats=True)
  )
)
json_stats: {"val_loss": 0.12264434592870246, "train_loss": 0.29008403420448303, "epoch": 0, "lr": 0.001, "env": "shape_completion"}
json_stats: {"val_loss": 0.12269947918130618, "train_loss": 0.20123699307441711, "epoch": 1, "lr": 0.001, "env": "shape_completion"}
json_stats: {"val_loss": 0.12115431245078578, "train_loss": 0.170111745595932, "epoch": 2, "lr": 0.001, "env": "shape_completion"}
CompletionNet(
  (encoder): Sequential(
    (0): PointNetfeat(
      (stn): STN3d(
        (conv1): Conv1d(3, 64, kernel_size=(1,), stride=(1,))
        (conv2): Conv1d(64, 128, kernel_size=(1,), stride=(1,))
        (conv3): Conv1d(128, 1024, kernel_size=(1,), stride=(1,))
        (fc1): Linear(in_features=1024, out_features=512, bias=True)
        (fc2): Linear(in_features=512, out_features=256, bias=True)
        (fc3): Linear(in_features=256, out_features=1, bias=True)
        (relu): ReLU()
      )
      (conv1): Conv1d(3, 64, kernel_size=(1,), stride=(1,))
      (conv2): Conv1d(64, 128, kernel_size=(1,), stride=(1,))
      (conv3): Conv1d(128, 1024, kernel_size=(1,), stride=(1,))
      (bn1): BatchNorm1d(64, eps=1e-05, momentum=0.1, affine=True, track_running_stats=True)
      (bn2): BatchNorm1d(128, eps=1e-05, momentum=0.1, affine=True, track_running_stats=True)
      (bn3): BatchNorm1d(1024, eps=1e-05, momentum=0.1, affine=True, track_running_stats=True)
    )
    (1): Linear(in_features=1024, out_features=1024, bias=True)
    (2): BatchNorm1d(1024, eps=1e-05, momentum=0.1, affine=True, track_running_stats=True)
    (3): ReLU()
  )
  (decoder): PointGenCon(
    (conv1): Conv1d(2051, 2051, kernel_size=(1,), stride=(1,))
    (conv2): Conv1d(2051, 1025, kernel_size=(1,), stride=(1,))
    (conv3): Conv1d(1025, 512, kernel_size=(1,), stride=(1,))
    (conv4): Conv1d(512, 256, kernel_size=(1,), stride=(1,))
    (conv5): Conv1d(256, 128, kernel_size=(1,), stride=(1,))
    (conv6): Conv1d(128, 128, kernel_size=(1,), stride=(1,))
    (conv7): Conv1d(128, 128, kernel_size=(1,), stride=(1,))
    (conv8): Conv1d(128, 128, kernel_size=(1,), stride=(1,))
    (conv9): Conv1d(128, 3, kernel_size=(1,), stride=(1,))
    (th): Tanh()
    (bn1): BatchNorm1d(2051, eps=1e-05, momentum=0.1, affine=True, track_running_stats=True)
    (bn2): BatchNorm1d(1025, eps=1e-05, momentum=0.1, affine=True, track_running_stats=True)
    (bn3): BatchNorm1d(512, eps=1e-05, momentum=0.1, affine=True, track_running_stats=True)
    (bn4): BatchNorm1d(256, eps=1e-05, momentum=0.1, affine=True, track_running_stats=True)
    (bn5): BatchNorm1d(128, eps=1e-05, momentum=0.1, affine=True, track_running_stats=True)
    (bn6): BatchNorm1d(128, eps=1e-05, momentum=0.1, affine=True, track_running_stats=True)
    (bn7): BatchNorm1d(128, eps=1e-05, momentum=0.1, affine=True, track_running_stats=True)
    (bn8): BatchNorm1d(128, eps=1e-05, momentum=0.1, affine=True, track_running_stats=True)
  )
)
CompletionNet(
  (encoder): Sequential(
    (0): PointNetfeat(
      (stn): STN3d(
        (conv1): Conv1d(3, 64, kernel_size=(1,), stride=(1,))
        (conv2): Conv1d(64, 128, kernel_size=(1,), stride=(1,))
        (conv3): Conv1d(128, 1024, kernel_size=(1,), stride=(1,))
        (fc1): Linear(in_features=1024, out_features=512, bias=True)
        (fc2): Linear(in_features=512, out_features=256, bias=True)
        (fc3): Linear(in_features=256, out_features=1, bias=True)
        (relu): ReLU()
      )
      (conv1): Conv1d(3, 64, kernel_size=(1,), stride=(1,))
      (conv2): Conv1d(64, 128, kernel_size=(1,), stride=(1,))
      (conv3): Conv1d(128, 1024, kernel_size=(1,), stride=(1,))
      (bn1): BatchNorm1d(64, eps=1e-05, momentum=0.1, affine=True, track_running_stats=True)
      (bn2): BatchNorm1d(128, eps=1e-05, momentum=0.1, affine=True, track_running_stats=True)
      (bn3): BatchNorm1d(1024, eps=1e-05, momentum=0.1, affine=True, track_running_stats=True)
    )
    (1): Linear(in_features=1024, out_features=1024, bias=True)
    (2): BatchNorm1d(1024, eps=1e-05, momentum=0.1, affine=True, track_running_stats=True)
    (3): ReLU()
  )
  (decoder): PointGenCon(
    (conv1): Conv1d(2051, 2051, kernel_size=(1,), stride=(1,))
    (conv2): Conv1d(2051, 1025, kernel_size=(1,), stride=(1,))
    (conv3): Conv1d(1025, 512, kernel_size=(1,), stride=(1,))
    (conv4): Conv1d(512, 256, kernel_size=(1,), stride=(1,))
    (conv5): Conv1d(256, 128, kernel_size=(1,), stride=(1,))
    (conv6): Conv1d(128, 128, kernel_size=(1,), stride=(1,))
    (conv7): Conv1d(128, 128, kernel_size=(1,), stride=(1,))
    (conv8): Conv1d(128, 128, kernel_size=(1,), stride=(1,))
    (conv9): Conv1d(128, 3, kernel_size=(1,), stride=(1,))
    (th): Tanh()
    (bn1): BatchNorm1d(2051, eps=1e-05, momentum=0.1, affine=True, track_running_stats=True)
    (bn2): BatchNorm1d(1025, eps=1e-05, momentum=0.1, affine=True, track_running_stats=True)
    (bn3): BatchNorm1d(512, eps=1e-05, momentum=0.1, affine=True, track_running_stats=True)
    (bn4): BatchNorm1d(256, eps=1e-05, momentum=0.1, affine=True, track_running_stats=True)
    (bn5): BatchNorm1d(128, eps=1e-05, momentum=0.1, affine=True, track_running_stats=True)
    (bn6): BatchNorm1d(128, eps=1e-05, momentum=0.1, affine=True, track_running_stats=True)
    (bn7): BatchNorm1d(128, eps=1e-05, momentum=0.1, affine=True, track_running_stats=True)
    (bn8): BatchNorm1d(128, eps=1e-05, momentum=0.1, affine=True, track_running_stats=True)
  )
)
CompletionNet(
  (encoder): Sequential(
    (0): PointNetfeat(
      (stn): STN3d(
        (conv1): Conv1d(3, 64, kernel_size=(1,), stride=(1,))
        (conv2): Conv1d(64, 128, kernel_size=(1,), stride=(1,))
        (conv3): Conv1d(128, 1024, kernel_size=(1,), stride=(1,))
        (fc1): Linear(in_features=1024, out_features=512, bias=True)
        (fc2): Linear(in_features=512, out_features=256, bias=True)
        (fc3): Linear(in_features=256, out_features=1, bias=True)
        (relu): ReLU()
      )
      (conv1): Conv1d(3, 64, kernel_size=(1,), stride=(1,))
      (conv2): Conv1d(64, 128, kernel_size=(1,), stride=(1,))
      (conv3): Conv1d(128, 1024, kernel_size=(1,), stride=(1,))
      (bn1): BatchNorm1d(64, eps=1e-05, momentum=0.1, affine=True, track_running_stats=True)
      (bn2): BatchNorm1d(128, eps=1e-05, momentum=0.1, affine=True, track_running_stats=True)
      (bn3): BatchNorm1d(1024, eps=1e-05, momentum=0.1, affine=True, track_running_stats=True)
    )
    (1): Linear(in_features=1024, out_features=1024, bias=True)
    (2): BatchNorm1d(1024, eps=1e-05, momentum=0.1, affine=True, track_running_stats=True)
    (3): ReLU()
  )
  (decoder): PointGenCon(
    (conv1): Conv1d(2051, 2051, kernel_size=(1,), stride=(1,))
    (conv2): Conv1d(2051, 1025, kernel_size=(1,), stride=(1,))
    (conv3): Conv1d(1025, 512, kernel_size=(1,), stride=(1,))
    (conv4): Conv1d(512, 256, kernel_size=(1,), stride=(1,))
    (conv5): Conv1d(256, 128, kernel_size=(1,), stride=(1,))
    (conv6): Conv1d(128, 128, kernel_size=(1,), stride=(1,))
    (conv7): Conv1d(128, 128, kernel_size=(1,), stride=(1,))
    (conv8): Conv1d(128, 128, kernel_size=(1,), stride=(1,))
    (conv9): Conv1d(128, 3, kernel_size=(1,), stride=(1,))
    (th): Tanh()
    (bn1): BatchNorm1d(2051, eps=1e-05, momentum=0.1, affine=True, track_running_stats=True)
    (bn2): BatchNorm1d(1025, eps=1e-05, momentum=0.1, affine=True, track_running_stats=True)
    (bn3): BatchNorm1d(512, eps=1e-05, momentum=0.1, affine=True, track_running_stats=True)
    (bn4): BatchNorm1d(256, eps=1e-05, momentum=0.1, affine=True, track_running_stats=True)
    (bn5): BatchNorm1d(128, eps=1e-05, momentum=0.1, affine=True, track_running_stats=True)
    (bn6): BatchNorm1d(128, eps=1e-05, momentum=0.1, affine=True, track_running_stats=True)
    (bn7): BatchNorm1d(128, eps=1e-05, momentum=0.1, affine=True, track_running_stats=True)
    (bn8): BatchNorm1d(128, eps=1e-05, momentum=0.1, affine=True, track_running_stats=True)
  )
)
CompletionNet(
  (encoder): Sequential(
    (0): PointNetfeat(
      (stn): STN3d(
        (conv1): Conv1d(3, 64, kernel_size=(1,), stride=(1,))
        (conv2): Conv1d(64, 128, kernel_size=(1,), stride=(1,))
        (conv3): Conv1d(128, 1024, kernel_size=(1,), stride=(1,))
        (fc1): Linear(in_features=1024, out_features=512, bias=True)
        (fc2): Linear(in_features=512, out_features=256, bias=True)
        (fc3): Linear(in_features=256, out_features=1, bias=True)
        (relu): ReLU()
      )
      (conv1): Conv1d(3, 64, kernel_size=(1,), stride=(1,))
      (conv2): Conv1d(64, 128, kernel_size=(1,), stride=(1,))
      (conv3): Conv1d(128, 1024, kernel_size=(1,), stride=(1,))
      (bn1): BatchNorm1d(64, eps=1e-05, momentum=0.1, affine=True, track_running_stats=True)
      (bn2): BatchNorm1d(128, eps=1e-05, momentum=0.1, affine=True, track_running_stats=True)
      (bn3): BatchNorm1d(1024, eps=1e-05, momentum=0.1, affine=True, track_running_stats=True)
    )
    (1): Linear(in_features=1024, out_features=1024, bias=True)
    (2): BatchNorm1d(1024, eps=1e-05, momentum=0.1, affine=True, track_running_stats=True)
    (3): ReLU()
  )
  (decoder): PointGenCon(
    (conv1): Conv1d(2051, 2051, kernel_size=(1,), stride=(1,))
    (conv2): Conv1d(2051, 1025, kernel_size=(1,), stride=(1,))
    (conv3): Conv1d(1025, 512, kernel_size=(1,), stride=(1,))
    (conv4): Conv1d(512, 256, kernel_size=(1,), stride=(1,))
    (conv5): Conv1d(256, 128, kernel_size=(1,), stride=(1,))
    (conv6): Conv1d(128, 128, kernel_size=(1,), stride=(1,))
    (conv7): Conv1d(128, 128, kernel_size=(1,), stride=(1,))
    (conv8): Conv1d(128, 128, kernel_size=(1,), stride=(1,))
    (conv9): Conv1d(128, 3, kernel_size=(1,), stride=(1,))
    (th): Tanh()
    (bn1): BatchNorm1d(2051, eps=1e-05, momentum=0.1, affine=True, track_running_stats=True)
    (bn2): BatchNorm1d(1025, eps=1e-05, momentum=0.1, affine=True, track_running_stats=True)
    (bn3): BatchNorm1d(512, eps=1e-05, momentum=0.1, affine=True, track_running_stats=True)
    (bn4): BatchNorm1d(256, eps=1e-05, momentum=0.1, affine=True, track_running_stats=True)
    (bn5): BatchNorm1d(128, eps=1e-05, momentum=0.1, affine=True, track_running_stats=True)
    (bn6): BatchNorm1d(128, eps=1e-05, momentum=0.1, affine=True, track_running_stats=True)
    (bn7): BatchNorm1d(128, eps=1e-05, momentum=0.1, affine=True, track_running_stats=True)
    (bn8): BatchNorm1d(128, eps=1e-05, momentum=0.1, affine=True, track_running_stats=True)
  )
)
json_stats: {"val_loss": 0.11743019091804163, "train_loss": 0.16802782118320464, "epoch": 0, "lr": 0.001, "env": "shape_completion"}
json_stats: {"val_loss": 0.17803808461084447, "train_loss": 0.10470617413520814, "epoch": 1, "lr": 0.001, "env": "shape_completion"}
json_stats: {"val_loss": 0.3989513537297745, "train_loss": 0.09356025904417038, "epoch": 2, "lr": 0.001, "env": "shape_completion"}
json_stats: {"val_loss": 0.13759061187662508, "train_loss": 0.08939759880304336, "epoch": 3, "lr": 0.001, "env": "shape_completion"}
CompletionNet(
  (encoder): Sequential(
    (0): PointNetfeat(
      (stn): STN3d(
        (conv1): Conv1d(3, 64, kernel_size=(1,), stride=(1,))
        (conv2): Conv1d(64, 128, kernel_size=(1,), stride=(1,))
        (conv3): Conv1d(128, 1024, kernel_size=(1,), stride=(1,))
        (fc1): Linear(in_features=1024, out_features=512, bias=True)
        (fc2): Linear(in_features=512, out_features=256, bias=True)
        (fc3): Linear(in_features=256, out_features=1, bias=True)
        (relu): ReLU()
      )
      (conv1): Conv1d(3, 64, kernel_size=(1,), stride=(1,))
      (conv2): Conv1d(64, 128, kernel_size=(1,), stride=(1,))
      (conv3): Conv1d(128, 1024, kernel_size=(1,), stride=(1,))
      (bn1): BatchNorm1d(64, eps=1e-05, momentum=0.1, affine=True, track_running_stats=True)
      (bn2): BatchNorm1d(128, eps=1e-05, momentum=0.1, affine=True, track_running_stats=True)
      (bn3): BatchNorm1d(1024, eps=1e-05, momentum=0.1, affine=True, track_running_stats=True)
    )
    (1): Linear(in_features=1024, out_features=1024, bias=True)
    (2): BatchNorm1d(1024, eps=1e-05, momentum=0.1, affine=True, track_running_stats=True)
    (3): ReLU()
  )
  (decoder): PointGenCon(
    (conv1): Conv1d(2051, 2051, kernel_size=(1,), stride=(1,))
    (conv2): Conv1d(2051, 1025, kernel_size=(1,), stride=(1,))
    (conv3): Conv1d(1025, 512, kernel_size=(1,), stride=(1,))
    (conv4): Conv1d(512, 256, kernel_size=(1,), stride=(1,))
    (conv5): Conv1d(256, 128, kernel_size=(1,), stride=(1,))
    (conv6): Conv1d(128, 128, kernel_size=(1,), stride=(1,))
    (conv7): Conv1d(128, 128, kernel_size=(1,), stride=(1,))
    (conv8): Conv1d(128, 128, kernel_size=(1,), stride=(1,))
    (conv9): Conv1d(128, 3, kernel_size=(1,), stride=(1,))
    (th): Tanh()
    (bn1): BatchNorm1d(2051, eps=1e-05, momentum=0.1, affine=True, track_running_stats=True)
    (bn2): BatchNorm1d(1025, eps=1e-05, momentum=0.1, affine=True, track_running_stats=True)
    (bn3): BatchNorm1d(512, eps=1e-05, momentum=0.1, affine=True, track_running_stats=True)
    (bn4): BatchNorm1d(256, eps=1e-05, momentum=0.1, affine=True, track_running_stats=True)
    (bn5): BatchNorm1d(128, eps=1e-05, momentum=0.1, affine=True, track_running_stats=True)
    (bn6): BatchNorm1d(128, eps=1e-05, momentum=0.1, affine=True, track_running_stats=True)
    (bn7): BatchNorm1d(128, eps=1e-05, momentum=0.1, affine=True, track_running_stats=True)
    (bn8): BatchNorm1d(128, eps=1e-05, momentum=0.1, affine=True, track_running_stats=True)
  )
)
CompletionNet(
  (encoder): Sequential(
    (0): PointNetfeat(
      (stn): STN3d(
        (conv1): Conv1d(3, 64, kernel_size=(1,), stride=(1,))
        (conv2): Conv1d(64, 128, kernel_size=(1,), stride=(1,))
        (conv3): Conv1d(128, 1024, kernel_size=(1,), stride=(1,))
        (fc1): Linear(in_features=1024, out_features=512, bias=True)
        (fc2): Linear(in_features=512, out_features=256, bias=True)
        (fc3): Linear(in_features=256, out_features=1, bias=True)
        (relu): ReLU()
      )
      (conv1): Conv1d(3, 64, kernel_size=(1,), stride=(1,))
      (conv2): Conv1d(64, 128, kernel_size=(1,), stride=(1,))
      (conv3): Conv1d(128, 1024, kernel_size=(1,), stride=(1,))
      (bn1): BatchNorm1d(64, eps=1e-05, momentum=0.1, affine=True, track_running_stats=True)
      (bn2): BatchNorm1d(128, eps=1e-05, momentum=0.1, affine=True, track_running_stats=True)
      (bn3): BatchNorm1d(1024, eps=1e-05, momentum=0.1, affine=True, track_running_stats=True)
    )
    (1): Linear(in_features=1024, out_features=1024, bias=True)
    (2): BatchNorm1d(1024, eps=1e-05, momentum=0.1, affine=True, track_running_stats=True)
    (3): ReLU()
  )
  (decoder): PointGenCon(
    (conv1): Conv1d(2051, 2051, kernel_size=(1,), stride=(1,))
    (conv2): Conv1d(2051, 1025, kernel_size=(1,), stride=(1,))
    (conv3): Conv1d(1025, 512, kernel_size=(1,), stride=(1,))
    (conv4): Conv1d(512, 256, kernel_size=(1,), stride=(1,))
    (conv5): Conv1d(256, 128, kernel_size=(1,), stride=(1,))
    (conv6): Conv1d(128, 128, kernel_size=(1,), stride=(1,))
    (conv7): Conv1d(128, 128, kernel_size=(1,), stride=(1,))
    (conv8): Conv1d(128, 128, kernel_size=(1,), stride=(1,))
    (conv9): Conv1d(128, 3, kernel_size=(1,), stride=(1,))
    (th): Tanh()
    (bn1): BatchNorm1d(2051, eps=1e-05, momentum=0.1, affine=True, track_running_stats=True)
    (bn2): BatchNorm1d(1025, eps=1e-05, momentum=0.1, affine=True, track_running_stats=True)
    (bn3): BatchNorm1d(512, eps=1e-05, momentum=0.1, affine=True, track_running_stats=True)
    (bn4): BatchNorm1d(256, eps=1e-05, momentum=0.1, affine=True, track_running_stats=True)
    (bn5): BatchNorm1d(128, eps=1e-05, momentum=0.1, affine=True, track_running_stats=True)
    (bn6): BatchNorm1d(128, eps=1e-05, momentum=0.1, affine=True, track_running_stats=True)
    (bn7): BatchNorm1d(128, eps=1e-05, momentum=0.1, affine=True, track_running_stats=True)
    (bn8): BatchNorm1d(128, eps=1e-05, momentum=0.1, affine=True, track_running_stats=True)
  )
)
CompletionNet(
  (encoder): Sequential(
    (0): PointNetfeat(
      (stn): STN3d(
        (conv1): Conv1d(3, 64, kernel_size=(1,), stride=(1,))
        (conv2): Conv1d(64, 128, kernel_size=(1,), stride=(1,))
        (conv3): Conv1d(128, 1024, kernel_size=(1,), stride=(1,))
        (fc1): Linear(in_features=1024, out_features=512, bias=True)
        (fc2): Linear(in_features=512, out_features=256, bias=True)
        (fc3): Linear(in_features=256, out_features=1, bias=True)
        (relu): ReLU()
      )
      (conv1): Conv1d(3, 64, kernel_size=(1,), stride=(1,))
      (conv2): Conv1d(64, 128, kernel_size=(1,), stride=(1,))
      (conv3): Conv1d(128, 1024, kernel_size=(1,), stride=(1,))
      (bn1): BatchNorm1d(64, eps=1e-05, momentum=0.1, affine=True, track_running_stats=True)
      (bn2): BatchNorm1d(128, eps=1e-05, momentum=0.1, affine=True, track_running_stats=True)
      (bn3): BatchNorm1d(1024, eps=1e-05, momentum=0.1, affine=True, track_running_stats=True)
    )
    (1): Linear(in_features=1024, out_features=1024, bias=True)
    (2): BatchNorm1d(1024, eps=1e-05, momentum=0.1, affine=True, track_running_stats=True)
    (3): ReLU()
  )
  (decoder): PointGenCon(
    (conv1): Conv1d(2051, 2051, kernel_size=(1,), stride=(1,))
    (conv2): Conv1d(2051, 1025, kernel_size=(1,), stride=(1,))
    (conv3): Conv1d(1025, 512, kernel_size=(1,), stride=(1,))
    (conv4): Conv1d(512, 256, kernel_size=(1,), stride=(1,))
    (conv5): Conv1d(256, 128, kernel_size=(1,), stride=(1,))
    (conv6): Conv1d(128, 128, kernel_size=(1,), stride=(1,))
    (conv7): Conv1d(128, 128, kernel_size=(1,), stride=(1,))
    (conv8): Conv1d(128, 128, kernel_size=(1,), stride=(1,))
    (conv9): Conv1d(128, 3, kernel_size=(1,), stride=(1,))
    (th): Tanh()
    (bn1): BatchNorm1d(2051, eps=1e-05, momentum=0.1, affine=True, track_running_stats=True)
    (bn2): BatchNorm1d(1025, eps=1e-05, momentum=0.1, affine=True, track_running_stats=True)
    (bn3): BatchNorm1d(512, eps=1e-05, momentum=0.1, affine=True, track_running_stats=True)
    (bn4): BatchNorm1d(256, eps=1e-05, momentum=0.1, affine=True, track_running_stats=True)
    (bn5): BatchNorm1d(128, eps=1e-05, momentum=0.1, affine=True, track_running_stats=True)
    (bn6): BatchNorm1d(128, eps=1e-05, momentum=0.1, affine=True, track_running_stats=True)
    (bn7): BatchNorm1d(128, eps=1e-05, momentum=0.1, affine=True, track_running_stats=True)
    (bn8): BatchNorm1d(128, eps=1e-05, momentum=0.1, affine=True, track_running_stats=True)
  )
)
CompletionNet(
  (encoder): Sequential(
    (0): PointNetfeat(
      (stn): STN3d(
        (conv1): Conv1d(3, 64, kernel_size=(1,), stride=(1,))
        (conv2): Conv1d(64, 128, kernel_size=(1,), stride=(1,))
        (conv3): Conv1d(128, 1024, kernel_size=(1,), stride=(1,))
        (fc1): Linear(in_features=1024, out_features=512, bias=True)
        (fc2): Linear(in_features=512, out_features=256, bias=True)
        (fc3): Linear(in_features=256, out_features=1, bias=True)
        (relu): ReLU()
      )
      (conv1): Conv1d(3, 64, kernel_size=(1,), stride=(1,))
      (conv2): Conv1d(64, 128, kernel_size=(1,), stride=(1,))
      (conv3): Conv1d(128, 1024, kernel_size=(1,), stride=(1,))
      (bn1): BatchNorm1d(64, eps=1e-05, momentum=0.1, affine=True, track_running_stats=True)
      (bn2): BatchNorm1d(128, eps=1e-05, momentum=0.1, affine=True, track_running_stats=True)
      (bn3): BatchNorm1d(1024, eps=1e-05, momentum=0.1, affine=True, track_running_stats=True)
    )
    (1): Linear(in_features=1024, out_features=1024, bias=True)
    (2): BatchNorm1d(1024, eps=1e-05, momentum=0.1, affine=True, track_running_stats=True)
    (3): ReLU()
  )
  (decoder): PointGenCon(
    (conv1): Conv1d(2051, 2051, kernel_size=(1,), stride=(1,))
    (conv2): Conv1d(2051, 1025, kernel_size=(1,), stride=(1,))
    (conv3): Conv1d(1025, 512, kernel_size=(1,), stride=(1,))
    (conv4): Conv1d(512, 256, kernel_size=(1,), stride=(1,))
    (conv5): Conv1d(256, 128, kernel_size=(1,), stride=(1,))
    (conv6): Conv1d(128, 128, kernel_size=(1,), stride=(1,))
    (conv7): Conv1d(128, 128, kernel_size=(1,), stride=(1,))
    (conv8): Conv1d(128, 128, kernel_size=(1,), stride=(1,))
    (conv9): Conv1d(128, 3, kernel_size=(1,), stride=(1,))
    (th): Tanh()
    (bn1): BatchNorm1d(2051, eps=1e-05, momentum=0.1, affine=True, track_running_stats=True)
    (bn2): BatchNorm1d(1025, eps=1e-05, momentum=0.1, affine=True, track_running_stats=True)
    (bn3): BatchNorm1d(512, eps=1e-05, momentum=0.1, affine=True, track_running_stats=True)
    (bn4): BatchNorm1d(256, eps=1e-05, momentum=0.1, affine=True, track_running_stats=True)
    (bn5): BatchNorm1d(128, eps=1e-05, momentum=0.1, affine=True, track_running_stats=True)
    (bn6): BatchNorm1d(128, eps=1e-05, momentum=0.1, affine=True, track_running_stats=True)
    (bn7): BatchNorm1d(128, eps=1e-05, momentum=0.1, affine=True, track_running_stats=True)
    (bn8): BatchNorm1d(128, eps=1e-05, momentum=0.1, affine=True, track_running_stats=True)
  )
)
json_stats: {"val_loss": 0.12720164391529107, "train_loss": 0.16165960356593131, "epoch": 0, "lr": 0.001, "env": "shape_completion"}
json_stats: {"val_loss": 0.120523699907468, "train_loss": 0.10919157043099403, "epoch": 1, "lr": 0.001, "env": "shape_completion"}
json_stats: {"val_loss": 0.19640170985874855, "train_loss": 0.09489887356758117, "epoch": 2, "lr": 0.001, "env": "shape_completion"}
…
