CompletionNet(
  (encoder): Sequential(
    (0): PointNetfeat(
      (stn): STN3d(
        (conv1): Conv1d(3, 64, kernel_size=(1,), stride=(1,))
        (conv2): Conv1d(64, 128, kernel_size=(1,), stride=(1,))
        (conv3): Conv1d(128, 1024, kernel_size=(1,), stride=(1,))
        (fc1): Linear(in_features=1024, out_features=512, bias=True)
        (fc2): Linear(in_features=512, out_features=256, bias=True)
        (fc3): Linear(in_features=256, out_features=1, bias=True)
        (relu): ReLU()
      )
      (conv1): Conv1d(3, 64, kernel_size=(1,), stride=(1,))
      (conv2): Conv1d(64, 128, kernel_size=(1,), stride=(1,))
      (conv3): Conv1d(128, 1024, kernel_size=(1,), stride=(1,))
      (bn1): BatchNorm1d(64, eps=1e-05, momentum=0.1, affine=True, track_running_stats=True)
      (bn2): BatchNorm1d(128, eps=1e-05, momentum=0.1, affine=True, track_running_stats=True)
      (bn3): BatchNorm1d(1024, eps=1e-05, momentum=0.1, affine=True, track_running_stats=True)
    )
    (1): Linear(in_features=1024, out_features=1024, bias=True)
    (2): BatchNorm1d(1024, eps=1e-05, momentum=0.1, affine=True, track_running_stats=True)
    (3): ReLU()
  )
  (decoder): PointGenCon(
    (conv1): Conv1d(2051, 2051, kernel_size=(1,), stride=(1,))
    (conv2): Conv1d(2051, 1025, kernel_size=(1,), stride=(1,))
    (conv3): Conv1d(1025, 512, kernel_size=(1,), stride=(1,))
    (conv4): Conv1d(512, 256, kernel_size=(1,), stride=(1,))
    (conv5): Conv1d(256, 128, kernel_size=(1,), stride=(1,))
    (conv6): Conv1d(128, 128, kernel_size=(1,), stride=(1,))
    (conv7): Conv1d(128, 128, kernel_size=(1,), stride=(1,))
    (conv8): Conv1d(128, 128, kernel_size=(1,), stride=(1,))
    (conv9): Conv1d(128, 3, kernel_size=(1,), stride=(1,))
    (th): Tanh()
    (bn1): BatchNorm1d(2051, eps=1e-05, momentum=0.1, affine=True, track_running_stats=True)
    (bn2): BatchNorm1d(1025, eps=1e-05, momentum=0.1, affine=True, track_running_stats=True)
    (bn3): BatchNorm1d(512, eps=1e-05, momentum=0.1, affine=True, track_running_stats=True)
    (bn4): BatchNorm1d(256, eps=1e-05, momentum=0.1, affine=True, track_running_stats=True)
    (bn5): BatchNorm1d(128, eps=1e-05, momentum=0.1, affine=True, track_running_stats=True)
    (bn6): BatchNorm1d(128, eps=1e-05, momentum=0.1, affine=True, track_running_stats=True)
    (bn7): BatchNorm1d(128, eps=1e-05, momentum=0.1, affine=True, track_running_stats=True)
    (bn8): BatchNorm1d(128, eps=1e-05, momentum=0.1, affine=True, track_running_stats=True)
  )
)
CompletionNet(
  (encoder): Sequential(
    (0): PointNetfeat(
      (stn): STN3d(
        (conv1): Conv1d(3, 64, kernel_size=(1,), stride=(1,))
        (conv2): Conv1d(64, 128, kernel_size=(1,), stride=(1,))
        (conv3): Conv1d(128, 1024, kernel_size=(1,), stride=(1,))
        (fc1): Linear(in_features=1024, out_features=512, bias=True)
        (fc2): Linear(in_features=512, out_features=256, bias=True)
        (fc3): Linear(in_features=256, out_features=1, bias=True)
        (relu): ReLU()
      )
      (conv1): Conv1d(3, 64, kernel_size=(1,), stride=(1,))
      (conv2): Conv1d(64, 128, kernel_size=(1,), stride=(1,))
      (conv3): Conv1d(128, 1024, kernel_size=(1,), stride=(1,))
      (bn1): BatchNorm1d(64, eps=1e-05, momentum=0.1, affine=True, track_running_stats=True)
      (bn2): BatchNorm1d(128, eps=1e-05, momentum=0.1, affine=True, track_running_stats=True)
      (bn3): BatchNorm1d(1024, eps=1e-05, momentum=0.1, affine=True, track_running_stats=True)
    )
    (1): Linear(in_features=1024, out_features=1024, bias=True)
    (2): BatchNorm1d(1024, eps=1e-05, momentum=0.1, affine=True, track_running_stats=True)
    (3): ReLU()
  )
  (decoder): PointGenCon(
    (conv1): Conv1d(2051, 2051, kernel_size=(1,), stride=(1,))
    (conv2): Conv1d(2051, 1025, kernel_size=(1,), stride=(1,))
    (conv3): Conv1d(1025, 512, kernel_size=(1,), stride=(1,))
    (conv4): Conv1d(512, 256, kernel_size=(1,), stride=(1,))
    (conv5): Conv1d(256, 128, kernel_size=(1,), stride=(1,))
    (conv6): Conv1d(128, 128, kernel_size=(1,), stride=(1,))
    (conv7): Conv1d(128, 128, kernel_size=(1,), stride=(1,))
    (conv8): Conv1d(128, 128, kernel_size=(1,), stride=(1,))
    (conv9): Conv1d(128, 3, kernel_size=(1,), stride=(1,))
    (th): Tanh()
    (bn1): BatchNorm1d(2051, eps=1e-05, momentum=0.1, affine=True, track_running_stats=True)
    (bn2): BatchNorm1d(1025, eps=1e-05, momentum=0.1, affine=True, track_running_stats=True)
    (bn3): BatchNorm1d(512, eps=1e-05, momentum=0.1, affine=True, track_running_stats=True)
    (bn4): BatchNorm1d(256, eps=1e-05, momentum=0.1, affine=True, track_running_stats=True)
    (bn5): BatchNorm1d(128, eps=1e-05, momentum=0.1, affine=True, track_running_stats=True)
    (bn6): BatchNorm1d(128, eps=1e-05, momentum=0.1, affine=True, track_running_stats=True)
    (bn7): BatchNorm1d(128, eps=1e-05, momentum=0.1, affine=True, track_running_stats=True)
    (bn8): BatchNorm1d(128, eps=1e-05, momentum=0.1, affine=True, track_running_stats=True)
  )
)
CompletionNet(
  (encoder): Sequential(
    (0): PointNetfeat(
      (stn): STN3d(
        (conv1): Conv1d(3, 64, kernel_size=(1,), stride=(1,))
        (conv2): Conv1d(64, 128, kernel_size=(1,), stride=(1,))
        (conv3): Conv1d(128, 1024, kernel_size=(1,), stride=(1,))
        (fc1): Linear(in_features=1024, out_features=512, bias=True)
        (fc2): Linear(in_features=512, out_features=256, bias=True)
        (fc3): Linear(in_features=256, out_features=1, bias=True)
        (relu): ReLU()
      )
      (conv1): Conv1d(3, 64, kernel_size=(1,), stride=(1,))
      (conv2): Conv1d(64, 128, kernel_size=(1,), stride=(1,))
      (conv3): Conv1d(128, 1024, kernel_size=(1,), stride=(1,))
      (bn1): BatchNorm1d(64, eps=1e-05, momentum=0.1, affine=True, track_running_stats=True)
      (bn2): BatchNorm1d(128, eps=1e-05, momentum=0.1, affine=True, track_running_stats=True)
      (bn3): BatchNorm1d(1024, eps=1e-05, momentum=0.1, affine=True, track_running_stats=True)
    )
    (1): Linear(in_features=1024, out_features=1024, bias=True)
    (2): BatchNorm1d(1024, eps=1e-05, momentum=0.1, affine=True, track_running_stats=True)
    (3): ReLU()
  )
  (decoder): PointGenCon(
    (conv1): Conv1d(2051, 2051, kernel_size=(1,), stride=(1,))
    (conv2): Conv1d(2051, 1025, kernel_size=(1,), stride=(1,))
    (conv3): Conv1d(1025, 512, kernel_size=(1,), stride=(1,))
    (conv4): Conv1d(512, 256, kernel_size=(1,), stride=(1,))
    (conv5): Conv1d(256, 128, kernel_size=(1,), stride=(1,))
    (conv6): Conv1d(128, 128, kernel_size=(1,), stride=(1,))
    (conv7): Conv1d(128, 128, kernel_size=(1,), stride=(1,))
    (conv8): Conv1d(128, 128, kernel_size=(1,), stride=(1,))
    (conv9): Conv1d(128, 3, kernel_size=(1,), stride=(1,))
    (th): Tanh()
    (bn1): BatchNorm1d(2051, eps=1e-05, momentum=0.1, affine=True, track_running_stats=True)
    (bn2): BatchNorm1d(1025, eps=1e-05, momentum=0.1, affine=True, track_running_stats=True)
    (bn3): BatchNorm1d(512, eps=1e-05, momentum=0.1, affine=True, track_running_stats=True)
    (bn4): BatchNorm1d(256, eps=1e-05, momentum=0.1, affine=True, track_running_stats=True)
    (bn5): BatchNorm1d(128, eps=1e-05, momentum=0.1, affine=True, track_running_stats=True)
    (bn6): BatchNorm1d(128, eps=1e-05, momentum=0.1, affine=True, track_running_stats=True)
    (bn7): BatchNorm1d(128, eps=1e-05, momentum=0.1, affine=True, track_running_stats=True)
    (bn8): BatchNorm1d(128, eps=1e-05, momentum=0.1, affine=True, track_running_stats=True)
  )
)
CompletionNet(
  (encoder): Sequential(
    (0): PointNetfeat(
      (stn): STN3d(
        (conv1): Conv1d(3, 64, kernel_size=(1,), stride=(1,))
        (conv2): Conv1d(64, 128, kernel_size=(1,), stride=(1,))
        (conv3): Conv1d(128, 1024, kernel_size=(1,), stride=(1,))
        (fc1): Linear(in_features=1024, out_features=512, bias=True)
        (fc2): Linear(in_features=512, out_features=256, bias=True)
        (fc3): Linear(in_features=256, out_features=1, bias=True)
        (relu): ReLU()
      )
      (conv1): Conv1d(3, 64, kernel_size=(1,), stride=(1,))
      (conv2): Conv1d(64, 128, kernel_size=(1,), stride=(1,))
      (conv3): Conv1d(128, 1024, kernel_size=(1,), stride=(1,))
      (bn1): BatchNorm1d(64, eps=1e-05, momentum=0.1, affine=True, track_running_stats=True)
      (bn2): BatchNorm1d(128, eps=1e-05, momentum=0.1, affine=True, track_running_stats=True)
      (bn3): BatchNorm1d(1024, eps=1e-05, momentum=0.1, affine=True, track_running_stats=True)
    )
    (1): Linear(in_features=1024, out_features=1024, bias=True)
    (2): BatchNorm1d(1024, eps=1e-05, momentum=0.1, affine=True, track_running_stats=True)
    (3): ReLU()
  )
  (decoder): PointGenCon(
    (conv1): Conv1d(2051, 2051, kernel_size=(1,), stride=(1,))
    (conv2): Conv1d(2051, 1025, kernel_size=(1,), stride=(1,))
    (conv3): Conv1d(1025, 512, kernel_size=(1,), stride=(1,))
    (conv4): Conv1d(512, 256, kernel_size=(1,), stride=(1,))
    (conv5): Conv1d(256, 128, kernel_size=(1,), stride=(1,))
    (conv6): Conv1d(128, 128, kernel_size=(1,), stride=(1,))
    (conv7): Conv1d(128, 128, kernel_size=(1,), stride=(1,))
    (conv8): Conv1d(128, 128, kernel_size=(1,), stride=(1,))
    (conv9): Conv1d(128, 3, kernel_size=(1,), stride=(1,))
    (th): Tanh()
    (bn1): BatchNorm1d(2051, eps=1e-05, momentum=0.1, affine=True, track_running_stats=True)
    (bn2): BatchNorm1d(1025, eps=1e-05, momentum=0.1, affine=True, track_running_stats=True)
    (bn3): BatchNorm1d(512, eps=1e-05, momentum=0.1, affine=True, track_running_stats=True)
    (bn4): BatchNorm1d(256, eps=1e-05, momentum=0.1, affine=True, track_running_stats=True)
    (bn5): BatchNorm1d(128, eps=1e-05, momentum=0.1, affine=True, track_running_stats=True)
    (bn6): BatchNorm1d(128, eps=1e-05, momentum=0.1, affine=True, track_running_stats=True)
    (bn7): BatchNorm1d(128, eps=1e-05, momentum=0.1, affine=True, track_running_stats=True)
    (bn8): BatchNorm1d(128, eps=1e-05, momentum=0.1, affine=True, track_running_stats=True)
  )
)
json_stats: {"val_loss": 0.11030816286802292, "train_loss": 0.31501829624176025, "epoch": 0, "lr": 0.001, "env": "shape_completion"}
json_stats: {"val_loss": 0.10827378928661346, "train_loss": 0.2923206686973572, "epoch": 1, "lr": 0.001, "env": "shape_completion"}
CompletionNet(
  (encoder): Sequential(
    (0): PointNetfeat(
      (stn): STN3d(
        (conv1): Conv1d(3, 64, kernel_size=(1,), stride=(1,))
        (conv2): Conv1d(64, 128, kernel_size=(1,), stride=(1,))
        (conv3): Conv1d(128, 1024, kernel_size=(1,), stride=(1,))
        (fc1): Linear(in_features=1024, out_features=512, bias=True)
        (fc2): Linear(in_features=512, out_features=256, bias=True)
        (fc3): Linear(in_features=256, out_features=1, bias=True)
        (relu): ReLU()
      )
      (conv1): Conv1d(3, 64, kernel_size=(1,), stride=(1,))
      (conv2): Conv1d(64, 128, kernel_size=(1,), stride=(1,))
      (conv3): Conv1d(128, 1024, kernel_size=(1,), stride=(1,))
      (bn1): BatchNorm1d(64, eps=1e-05, momentum=0.1, affine=True, track_running_stats=True)
      (bn2): BatchNorm1d(128, eps=1e-05, momentum=0.1, affine=True, track_running_stats=True)
      (bn3): BatchNorm1d(1024, eps=1e-05, momentum=0.1, affine=True, track_running_stats=True)
    )
    (1): Linear(in_features=1024, out_features=1024, bias=True)
    (2): BatchNorm1d(1024, eps=1e-05, momentum=0.1, affine=True, track_running_stats=True)
    (3): ReLU()
  )
  (decoder): PointGenCon(
    (conv1): Conv1d(2051, 2051, kernel_size=(1,), stride=(1,))
    (conv2): Conv1d(2051, 1025, kernel_size=(1,), stride=(1,))
    (conv3): Conv1d(1025, 512, kernel_size=(1,), stride=(1,))
    (conv4): Conv1d(512, 256, kernel_size=(1,), stride=(1,))
    (conv5): Conv1d(256, 128, kernel_size=(1,), stride=(1,))
    (conv6): Conv1d(128, 128, kernel_size=(1,), stride=(1,))
    (conv7): Conv1d(128, 128, kernel_size=(1,), stride=(1,))
    (conv8): Conv1d(128, 128, kernel_size=(1,), stride=(1,))
    (conv9): Conv1d(128, 3, kernel_size=(1,), stride=(1,))
    (th): Tanh()
    (bn1): BatchNorm1d(2051, eps=1e-05, momentum=0.1, affine=True, track_running_stats=True)
    (bn2): BatchNorm1d(1025, eps=1e-05, momentum=0.1, affine=True, track_running_stats=True)
    (bn3): BatchNorm1d(512, eps=1e-05, momentum=0.1, affine=True, track_running_stats=True)
    (bn4): BatchNorm1d(256, eps=1e-05, momentum=0.1, affine=True, track_running_stats=True)
    (bn5): BatchNorm1d(128, eps=1e-05, momentum=0.1, affine=True, track_running_stats=True)
    (bn6): BatchNorm1d(128, eps=1e-05, momentum=0.1, affine=True, track_running_stats=True)
    (bn7): BatchNorm1d(128, eps=1e-05, momentum=0.1, affine=True, track_running_stats=True)
    (bn8): BatchNorm1d(128, eps=1e-05, momentum=0.1, affine=True, track_running_stats=True)
  )
)
json_stats: {"val_loss": 0.10685402154922485, "train_loss": 0.26968738436698914, "epoch": 0, "lr": 0.001, "env": "shape_completion"}
json_stats: {"val_loss": 0.10535027831792831, "train_loss": 0.1653677523136139, "epoch": 1, "lr": 0.001, "env": "shape_completion"}
json_stats: {"val_loss": 0.10391116142272949, "train_loss": 0.12339504063129425, "epoch": 2, "lr": 0.001, "env": "shape_completion"}
