CompletionNet(
  (encoder): Sequential(
    (0): PointNetfeat(
      (stn): STN3d(
        (conv1): Conv1d(3, 64, kernel_size=(1,), stride=(1,))
        (conv2): Conv1d(64, 128, kernel_size=(1,), stride=(1,))
        (conv3): Conv1d(128, 1024, kernel_size=(1,), stride=(1,))
        (fc1): Linear(in_features=1024, out_features=512, bias=True)
        (fc2): Linear(in_features=512, out_features=256, bias=True)
        (fc3): Linear(in_features=256, out_features=1, bias=True)
        (relu): ReLU()
      )
      (conv1): Conv1d(6, 64, kernel_size=(1,), stride=(1,))
      (conv2): Conv1d(64, 128, kernel_size=(1,), stride=(1,))
      (conv3): Conv1d(128, 1024, kernel_size=(1,), stride=(1,))
      (bn1): BatchNorm1d(64, eps=1e-05, momentum=0.1, affine=True, track_running_stats=True)
      (bn2): BatchNorm1d(128, eps=1e-05, momentum=0.1, affine=True, track_running_stats=True)
      (bn3): BatchNorm1d(1024, eps=1e-05, momentum=0.1, affine=True, track_running_stats=True)
    )
    (1): Linear(in_features=1024, out_features=1024, bias=True)
    (2): BatchNorm1d(1024, eps=1e-05, momentum=0.1, affine=True, track_running_stats=True)
    (3): ReLU()
  )
  (decoder): PointGenCon(
    (conv1): Conv1d(2054, 2054, kernel_size=(1,), stride=(1,))
    (conv2): Conv1d(2054, 1027, kernel_size=(1,), stride=(1,))
    (conv3): Conv1d(1027, 513, kernel_size=(1,), stride=(1,))
    (conv4): Conv1d(513, 256, kernel_size=(1,), stride=(1,))
    (conv5): Conv1d(256, 128, kernel_size=(1,), stride=(1,))
    (conv6): Conv1d(128, 128, kernel_size=(1,), stride=(1,))
    (conv7): Conv1d(128, 128, kernel_size=(1,), stride=(1,))
    (conv8): Conv1d(128, 128, kernel_size=(1,), stride=(1,))
    (conv9): Conv1d(128, 3, kernel_size=(1,), stride=(1,))
    (th): Tanh()
    (bn1): BatchNorm1d(2054, eps=1e-05, momentum=0.1, affine=True, track_running_stats=True)
    (bn2): BatchNorm1d(1027, eps=1e-05, momentum=0.1, affine=True, track_running_stats=True)
    (bn3): BatchNorm1d(513, eps=1e-05, momentum=0.1, affine=True, track_running_stats=True)
    (bn4): BatchNorm1d(256, eps=1e-05, momentum=0.1, affine=True, track_running_stats=True)
    (bn5): BatchNorm1d(128, eps=1e-05, momentum=0.1, affine=True, track_running_stats=True)
    (bn6): BatchNorm1d(128, eps=1e-05, momentum=0.1, affine=True, track_running_stats=True)
    (bn7): BatchNorm1d(128, eps=1e-05, momentum=0.1, affine=True, track_running_stats=True)
    (bn8): BatchNorm1d(128, eps=1e-05, momentum=0.1, affine=True, track_running_stats=True)
  )
)
json_stats: {"val_loss_L2_smpl": 0.05577716044121589, "train_loss_L2_smpl": 0.08879380476555887, "epoch": 0, "lr": 0.001, "env": "3DCODED_supervised"}
CompletionNet(
  (encoder): Sequential(
    (0): PointNetfeat(
      (stn): STN3d(
        (conv1): Conv1d(3, 64, kernel_size=(1,), stride=(1,))
        (conv2): Conv1d(64, 128, kernel_size=(1,), stride=(1,))
        (conv3): Conv1d(128, 1024, kernel_size=(1,), stride=(1,))
        (fc1): Linear(in_features=1024, out_features=512, bias=True)
        (fc2): Linear(in_features=512, out_features=256, bias=True)
        (fc3): Linear(in_features=256, out_features=1, bias=True)
        (relu): ReLU()
      )
      (conv1): Conv1d(6, 64, kernel_size=(1,), stride=(1,))
      (conv2): Conv1d(64, 128, kernel_size=(1,), stride=(1,))
      (conv3): Conv1d(128, 1024, kernel_size=(1,), stride=(1,))
      (bn1): BatchNorm1d(64, eps=1e-05, momentum=0.1, affine=True, track_running_stats=True)
      (bn2): BatchNorm1d(128, eps=1e-05, momentum=0.1, affine=True, track_running_stats=True)
      (bn3): BatchNorm1d(1024, eps=1e-05, momentum=0.1, affine=True, track_running_stats=True)
    )
    (1): Linear(in_features=1024, out_features=1024, bias=True)
    (2): BatchNorm1d(1024, eps=1e-05, momentum=0.1, affine=True, track_running_stats=True)
    (3): ReLU()
  )
  (decoder): PointGenCon(
    (conv1): Conv1d(2054, 2054, kernel_size=(1,), stride=(1,))
    (conv2): Conv1d(2054, 1027, kernel_size=(1,), stride=(1,))
    (conv3): Conv1d(1027, 513, kernel_size=(1,), stride=(1,))
    (conv4): Conv1d(513, 256, kernel_size=(1,), stride=(1,))
    (conv5): Conv1d(256, 128, kernel_size=(1,), stride=(1,))
    (conv6): Conv1d(128, 128, kernel_size=(1,), stride=(1,))
    (conv7): Conv1d(128, 128, kernel_size=(1,), stride=(1,))
    (conv8): Conv1d(128, 128, kernel_size=(1,), stride=(1,))
    (conv9): Conv1d(128, 3, kernel_size=(1,), stride=(1,))
    (th): Tanh()
    (bn1): BatchNorm1d(2054, eps=1e-05, momentum=0.1, affine=True, track_running_stats=True)
    (bn2): BatchNorm1d(1027, eps=1e-05, momentum=0.1, affine=True, track_running_stats=True)
    (bn3): BatchNorm1d(513, eps=1e-05, momentum=0.1, affine=True, track_running_stats=True)
    (bn4): BatchNorm1d(256, eps=1e-05, momentum=0.1, affine=True, track_running_stats=True)
    (bn5): BatchNorm1d(128, eps=1e-05, momentum=0.1, affine=True, track_running_stats=True)
    (bn6): BatchNorm1d(128, eps=1e-05, momentum=0.1, affine=True, track_running_stats=True)
    (bn7): BatchNorm1d(128, eps=1e-05, momentum=0.1, affine=True, track_running_stats=True)
    (bn8): BatchNorm1d(128, eps=1e-05, momentum=0.1, affine=True, track_running_stats=True)
  )
)
json_stats: {"val_loss_L2_smpl": 0.05484005938846749, "train_loss_L2_smpl": 0.0908598878288846, "epoch": 0, "lr": 0.001, "env": "3DCODED_supervised"}
json_stats: {"val_loss_L2_smpl": 0.047501260914970235, "train_loss_L2_smpl": 0.053927083317046445, "epoch": 1, "lr": 0.001, "env": "3DCODED_supervised"}
json_stats: {"val_loss_L2_smpl": 0.04112945538570094, "train_loss_L2_smpl": 0.046085922994913694, "epoch": 2, "lr": 0.001, "env": "3DCODED_supervised"}
…
json_stats: {"val_loss_L2_smpl": 0.005881034165926371, "train_loss_L2_smpl": 0.009644152169046205, "epoch": 28, "lr": 0.001, "env": "3DCODED_supervised"}
json_stats: {"val_loss_L2_smpl": 0.005399266523737286, "train_loss_L2_smpl": 0.009541408498314087, "epoch": 29, "lr": 0.001, "env": "3DCODED_supervised"}
json_stats: {"val_loss_L2_smpl": 0.006728141807434816, "train_loss_L2_smpl": 0.009036557762208089, "epoch": 30, "lr": 0.001, "env": "3DCODED_supervised"}
json_stats: {"val_loss_L2_smpl": 0.005354162857154935, "train_loss_L2_smpl": 0.009057476118934406, "epoch": 31, "lr": 0.001, "env": "3DCODED_supervised"}
CompletionNet(
  (encoder): Sequential(
    (0): PointNetfeat(
      (stn): STN3d(
        (conv1): Conv1d(3, 64, kernel_size=(1,), stride=(1,))
        (conv2): Conv1d(64, 128, kernel_size=(1,), stride=(1,))
        (conv3): Conv1d(128, 1024, kernel_size=(1,), stride=(1,))
        (fc1): Linear(in_features=1024, out_features=512, bias=True)
        (fc2): Linear(in_features=512, out_features=256, bias=True)
        (fc3): Linear(in_features=256, out_features=1, bias=True)
        (relu): ReLU()
      )
      (conv1): Conv1d(6, 64, kernel_size=(1,), stride=(1,))
      (conv2): Conv1d(64, 128, kernel_size=(1,), stride=(1,))
      (conv3): Conv1d(128, 1024, kernel_size=(1,), stride=(1,))
      (bn1): BatchNorm1d(64, eps=1e-05, momentum=0.1, affine=True, track_running_stats=True)
      (bn2): BatchNorm1d(128, eps=1e-05, momentum=0.1, affine=True, track_running_stats=True)
      (bn3): BatchNorm1d(1024, eps=1e-05, momentum=0.1, affine=True, track_running_stats=True)
    )
    (1): Linear(in_features=1024, out_features=1024, bias=True)
    (2): BatchNorm1d(1024, eps=1e-05, momentum=0.1, affine=True, track_running_stats=True)
    (3): ReLU()
  )
  (decoder): PointGenCon(
    (conv1): Conv1d(2054, 2054, kernel_size=(1,), stride=(1,))
    (conv2): Conv1d(2054, 1027, kernel_size=(1,), stride=(1,))
    (conv3): Conv1d(1027, 513, kernel_size=(1,), stride=(1,))
    (conv4): Conv1d(513, 256, kernel_size=(1,), stride=(1,))
    (conv5): Conv1d(256, 128, kernel_size=(1,), stride=(1,))
    (conv6): Conv1d(128, 128, kernel_size=(1,), stride=(1,))
    (conv7): Conv1d(128, 128, kernel_size=(1,), stride=(1,))
    (conv8): Conv1d(128, 128, kernel_size=(1,), stride=(1,))
    (conv9): Conv1d(128, 3, kernel_size=(1,), stride=(1,))
    (th): Tanh()
    (bn1): BatchNorm1d(2054, eps=1e-05, momentum=0.1, affine=True, track_running_stats=True)
    (bn2): BatchNorm1d(1027, eps=1e-05, momentum=0.1, affine=True, track_running_stats=True)
    (bn3): BatchNorm1d(513, eps=1e-05, momentum=0.1, affine=True, track_running_stats=True)
    (bn4): BatchNorm1d(256, eps=1e-05, momentum=0.1, affine=True, track_running_stats=True)
    (bn5): BatchNorm1d(128, eps=1e-05, momentum=0.1, affine=True, track_running_stats=True)
    (bn6): BatchNorm1d(128, eps=1e-05, momentum=0.1, affine=True, track_running_stats=True)
    (bn7): BatchNorm1d(128, eps=1e-05, momentum=0.1, affine=True, track_running_stats=True)
    (bn8): BatchNorm1d(128, eps=1e-05, momentum=0.1, affine=True, track_running_stats=True)
  )
)
json_stats: {"val_loss_L2_smpl": 0.005771027777684743, "train_loss_L2_smpl": 0.008953889525179427, "epoch": 0, "lr": 0.001, "env": "3DCODED_supervised"}
json_stats: {"val_loss_L2_smpl": 0.005561793877984628, "train_loss_L2_smpl": 0.00891110536400709, "epoch": 1, "lr": 0.001, "env": "3DCODED_supervised"}
json_stats: {"val_loss_L2_smpl": 0.006069742203837158, "train_loss_L2_smpl": 0.008753423543396775, "epoch": 2, "lr": 0.001, "env": "3DCODED_supervised"}
…
