CompletionNet(
  (encoder): Sequential(
    (0): PointNetfeat(
      (stn): STN3d(
        (conv1): Conv1d(3, 64, kernel_size=(1,), stride=(1,))
        (conv2): Conv1d(64, 128, kernel_size=(1,), stride=(1,))
        (conv3): Conv1d(128, 1024, kernel_size=(1,), stride=(1,))
        (fc1): Linear(in_features=1024, out_features=512, bias=True)
        (fc2): Linear(in_features=512, out_features=256, bias=True)
        (fc3): Linear(in_features=256, out_features=1, bias=True)
        (relu): ReLU()
      )
      (conv1): Conv1d(6, 64, kernel_size=(1,), stride=(1,))
      (conv2): Conv1d(64, 128, kernel_size=(1,), stride=(1,))
      (conv3): Conv1d(128, 1024, kernel_size=(1,), stride=(1,))
      (bn1): BatchNorm1d(64, eps=1e-05, momentum=0.1, affine=True, track_running_stats=True)
      (bn2): BatchNorm1d(128, eps=1e-05, momentum=0.1, affine=True, track_running_stats=True)
      (bn3): BatchNorm1d(1024, eps=1e-05, momentum=0.1, affine=True, track_running_stats=True)
    )
    (1): Linear(in_features=1024, out_features=1024, bias=True)
    (2): BatchNorm1d(1024, eps=1e-05, momentum=0.1, affine=True, track_running_stats=True)
    (3): ReLU()
  )
  (decoder): PointGenCon(
    (conv1): Conv1d(2051, 2051, kernel_size=(1,), stride=(1,))
    (conv2): Conv1d(2051, 1025, kernel_size=(1,), stride=(1,))
    (conv3): Conv1d(1025, 512, kernel_size=(1,), stride=(1,))
    (conv4): Conv1d(512, 256, kernel_size=(1,), stride=(1,))
    (conv5): Conv1d(256, 128, kernel_size=(1,), stride=(1,))
    (conv6): Conv1d(128, 3, kernel_size=(1,), stride=(1,))
    (th): Tanh()
    (bn1): BatchNorm1d(2051, eps=1e-05, momentum=0.1, affine=True, track_running_stats=True)
    (bn2): BatchNorm1d(1025, eps=1e-05, momentum=0.1, affine=True, track_running_stats=True)
    (bn3): BatchNorm1d(512, eps=1e-05, momentum=0.1, affine=True, track_running_stats=True)
    (bn4): BatchNorm1d(256, eps=1e-05, momentum=0.1, affine=True, track_running_stats=True)
    (bn5): BatchNorm1d(128, eps=1e-05, momentum=0.1, affine=True, track_running_stats=True)
  )
)
CompletionNet(
  (encoder): Sequential(
    (0): PointNetfeat(
      (stn): STN3d(
        (conv1): Conv1d(3, 64, kernel_size=(1,), stride=(1,))
        (conv2): Conv1d(64, 128, kernel_size=(1,), stride=(1,))
        (conv3): Conv1d(128, 1024, kernel_size=(1,), stride=(1,))
        (fc1): Linear(in_features=1024, out_features=512, bias=True)
        (fc2): Linear(in_features=512, out_features=256, bias=True)
        (fc3): Linear(in_features=256, out_features=1, bias=True)
        (relu): ReLU()
      )
      (conv1): Conv1d(6, 64, kernel_size=(1,), stride=(1,))
      (conv2): Conv1d(64, 128, kernel_size=(1,), stride=(1,))
      (conv3): Conv1d(128, 1024, kernel_size=(1,), stride=(1,))
      (bn1): BatchNorm1d(64, eps=1e-05, momentum=0.1, affine=True, track_running_stats=True)
      (bn2): BatchNorm1d(128, eps=1e-05, momentum=0.1, affine=True, track_running_stats=True)
      (bn3): BatchNorm1d(1024, eps=1e-05, momentum=0.1, affine=True, track_running_stats=True)
    )
    (1): Linear(in_features=1024, out_features=1024, bias=True)
    (2): BatchNorm1d(1024, eps=1e-05, momentum=0.1, affine=True, track_running_stats=True)
    (3): ReLU()
  )
  (decoder): PointGenCon(
    (conv1): Conv1d(2051, 2051, kernel_size=(1,), stride=(1,))
    (conv2): Conv1d(2051, 1025, kernel_size=(1,), stride=(1,))
    (conv3): Conv1d(1025, 512, kernel_size=(1,), stride=(1,))
    (conv4): Conv1d(512, 256, kernel_size=(1,), stride=(1,))
    (conv5): Conv1d(256, 128, kernel_size=(1,), stride=(1,))
    (conv6): Conv1d(128, 3, kernel_size=(1,), stride=(1,))
    (th): Tanh()
    (bn1): BatchNorm1d(2051, eps=1e-05, momentum=0.1, affine=True, track_running_stats=True)
    (bn2): BatchNorm1d(1025, eps=1e-05, momentum=0.1, affine=True, track_running_stats=True)
    (bn3): BatchNorm1d(512, eps=1e-05, momentum=0.1, affine=True, track_running_stats=True)
    (bn4): BatchNorm1d(256, eps=1e-05, momentum=0.1, affine=True, track_running_stats=True)
    (bn5): BatchNorm1d(128, eps=1e-05, momentum=0.1, affine=True, track_running_stats=True)
  )
)
CompletionNet(
  (encoder): Sequential(
    (0): PointNetfeat(
      (stn): STN3d(
        (conv1): Conv1d(3, 64, kernel_size=(1,), stride=(1,))
        (conv2): Conv1d(64, 128, kernel_size=(1,), stride=(1,))
        (conv3): Conv1d(128, 1024, kernel_size=(1,), stride=(1,))
        (fc1): Linear(in_features=1024, out_features=512, bias=True)
        (fc2): Linear(in_features=512, out_features=256, bias=True)
        (fc3): Linear(in_features=256, out_features=1, bias=True)
        (relu): ReLU()
      )
      (conv1): Conv1d(6, 64, kernel_size=(1,), stride=(1,))
      (conv2): Conv1d(64, 128, kernel_size=(1,), stride=(1,))
      (conv3): Conv1d(128, 1024, kernel_size=(1,), stride=(1,))
      (bn1): BatchNorm1d(64, eps=1e-05, momentum=0.1, affine=True, track_running_stats=True)
      (bn2): BatchNorm1d(128, eps=1e-05, momentum=0.1, affine=True, track_running_stats=True)
      (bn3): BatchNorm1d(1024, eps=1e-05, momentum=0.1, affine=True, track_running_stats=True)
    )
    (1): Linear(in_features=1024, out_features=1024, bias=True)
    (2): BatchNorm1d(1024, eps=1e-05, momentum=0.1, affine=True, track_running_stats=True)
    (3): ReLU()
  )
  (decoder): PointGenCon(
    (conv1): Conv1d(2054, 2054, kernel_size=(1,), stride=(1,))
    (conv2): Conv1d(2054, 1027, kernel_size=(1,), stride=(1,))
    (conv3): Conv1d(1027, 513, kernel_size=(1,), stride=(1,))
    (conv4): Conv1d(513, 256, kernel_size=(1,), stride=(1,))
    (conv5): Conv1d(256, 128, kernel_size=(1,), stride=(1,))
    (conv6): Conv1d(128, 3, kernel_size=(1,), stride=(1,))
    (th): Tanh()
    (bn1): BatchNorm1d(2054, eps=1e-05, momentum=0.1, affine=True, track_running_stats=True)
    (bn2): BatchNorm1d(1027, eps=1e-05, momentum=0.1, affine=True, track_running_stats=True)
    (bn3): BatchNorm1d(513, eps=1e-05, momentum=0.1, affine=True, track_running_stats=True)
    (bn4): BatchNorm1d(256, eps=1e-05, momentum=0.1, affine=True, track_running_stats=True)
    (bn5): BatchNorm1d(128, eps=1e-05, momentum=0.1, affine=True, track_running_stats=True)
  )
)
CompletionNet(
  (encoder): Sequential(
    (0): PointNetfeat(
      (stn): STN3d(
        (conv1): Conv1d(3, 64, kernel_size=(1,), stride=(1,))
        (conv2): Conv1d(64, 128, kernel_size=(1,), stride=(1,))
        (conv3): Conv1d(128, 1024, kernel_size=(1,), stride=(1,))
        (fc1): Linear(in_features=1024, out_features=512, bias=True)
        (fc2): Linear(in_features=512, out_features=256, bias=True)
        (fc3): Linear(in_features=256, out_features=1, bias=True)
        (relu): ReLU()
      )
      (conv1): Conv1d(6, 64, kernel_size=(1,), stride=(1,))
      (conv2): Conv1d(64, 128, kernel_size=(1,), stride=(1,))
      (conv3): Conv1d(128, 1024, kernel_size=(1,), stride=(1,))
      (bn1): BatchNorm1d(64, eps=1e-05, momentum=0.1, affine=True, track_running_stats=True)
      (bn2): BatchNorm1d(128, eps=1e-05, momentum=0.1, affine=True, track_running_stats=True)
      (bn3): BatchNorm1d(1024, eps=1e-05, momentum=0.1, affine=True, track_running_stats=True)
    )
    (1): Linear(in_features=1024, out_features=1024, bias=True)
    (2): BatchNorm1d(1024, eps=1e-05, momentum=0.1, affine=True, track_running_stats=True)
    (3): ReLU()
  )
  (decoder): PointGenCon(
    (conv1): Conv1d(2054, 2054, kernel_size=(1,), stride=(1,))
    (conv2): Conv1d(2054, 1027, kernel_size=(1,), stride=(1,))
    (conv3): Conv1d(1027, 513, kernel_size=(1,), stride=(1,))
    (conv4): Conv1d(513, 256, kernel_size=(1,), stride=(1,))
    (conv5): Conv1d(256, 128, kernel_size=(1,), stride=(1,))
    (conv6): Conv1d(128, 3, kernel_size=(1,), stride=(1,))
    (th): Tanh()
    (bn1): BatchNorm1d(2054, eps=1e-05, momentum=0.1, affine=True, track_running_stats=True)
    (bn2): BatchNorm1d(1027, eps=1e-05, momentum=0.1, affine=True, track_running_stats=True)
    (bn3): BatchNorm1d(513, eps=1e-05, momentum=0.1, affine=True, track_running_stats=True)
    (bn4): BatchNorm1d(256, eps=1e-05, momentum=0.1, affine=True, track_running_stats=True)
    (bn5): BatchNorm1d(128, eps=1e-05, momentum=0.1, affine=True, track_running_stats=True)
  )
)
json_stats: {"val_loss_L2_smpl": 0.0521367390288393, "train_loss_L2_smpl": 0.08474610800596293, "epoch": 0, "lr": 0.001, "env": "3DCODED_supervised"}
json_stats: {"val_loss_L2_smpl": 0.04093613202454049, "train_loss_L2_smpl": 0.051171714558052535, "epoch": 1, "lr": 0.001, "env": "3DCODED_supervised"}
json_stats: {"val_loss_L2_smpl": 0.03549346503262275, "train_loss_L2_smpl": 0.04286856002151381, "epoch": 2, "lr": 0.001, "env": "3DCODED_supervised"}
json_stats: {"val_loss_L2_smpl": 0.026389706306778928, "train_loss_L2_smpl": 0.03494611371600798, "epoch": 3, "lr": 0.001, "env": "3DCODED_supervised"}
CompletionNet(
  (encoder): Sequential(
    (0): PointNetfeat(
      (stn): STN3d(
        (conv1): Conv1d(3, 64, kernel_size=(1,), stride=(1,))
        (conv2): Conv1d(64, 128, kernel_size=(1,), stride=(1,))
        (conv3): Conv1d(128, 1024, kernel_size=(1,), stride=(1,))
        (fc1): Linear(in_features=1024, out_features=512, bias=True)
        (fc2): Linear(in_features=512, out_features=256, bias=True)
        (fc3): Linear(in_features=256, out_features=1, bias=True)
        (relu): ReLU()
      )
      (conv1): Conv1d(6, 64, kernel_size=(1,), stride=(1,))
      (conv2): Conv1d(64, 128, kernel_size=(1,), stride=(1,))
      (conv3): Conv1d(128, 1024, kernel_size=(1,), stride=(1,))
      (bn1): BatchNorm1d(64, eps=1e-05, momentum=0.1, affine=True, track_running_stats=True)
      (bn2): BatchNorm1d(128, eps=1e-05, momentum=0.1, affine=True, track_running_stats=True)
      (bn3): BatchNorm1d(1024, eps=1e-05, momentum=0.1, affine=True, track_running_stats=True)
    )
    (1): Linear(in_features=1024, out_features=1024, bias=True)
    (2): BatchNorm1d(1024, eps=1e-05, momentum=0.1, affine=True, track_running_stats=True)
    (3): ReLU()
  )
  (decoder): PointGenCon(
    (conv1): Conv1d(2054, 2054, kernel_size=(1,), stride=(1,))
    (conv2): Conv1d(2054, 1027, kernel_size=(1,), stride=(1,))
    (conv3): Conv1d(1027, 513, kernel_size=(1,), stride=(1,))
    (conv4): Conv1d(513, 256, kernel_size=(1,), stride=(1,))
    (conv5): Conv1d(256, 128, kernel_size=(1,), stride=(1,))
    (conv6): Conv1d(128, 3, kernel_size=(1,), stride=(1,))
    (th): Tanh()
    (bn1): BatchNorm1d(2054, eps=1e-05, momentum=0.1, affine=True, track_running_stats=True)
    (bn2): BatchNorm1d(1027, eps=1e-05, momentum=0.1, affine=True, track_running_stats=True)
    (bn3): BatchNorm1d(513, eps=1e-05, momentum=0.1, affine=True, track_running_stats=True)
    (bn4): BatchNorm1d(256, eps=1e-05, momentum=0.1, affine=True, track_running_stats=True)
    (bn5): BatchNorm1d(128, eps=1e-05, momentum=0.1, affine=True, track_running_stats=True)
  )
)
CompletionNet(
  (encoder): Sequential(
    (0): PointNetfeat(
      (stn): STN3d(
        (conv1): Conv1d(3, 64, kernel_size=(1,), stride=(1,))
        (conv2): Conv1d(64, 128, kernel_size=(1,), stride=(1,))
        (conv3): Conv1d(128, 1024, kernel_size=(1,), stride=(1,))
        (fc1): Linear(in_features=1024, out_features=512, bias=True)
        (fc2): Linear(in_features=512, out_features=256, bias=True)
        (fc3): Linear(in_features=256, out_features=1, bias=True)
        (relu): ReLU()
      )
      (conv1): Conv1d(6, 64, kernel_size=(1,), stride=(1,))
      (conv2): Conv1d(64, 128, kernel_size=(1,), stride=(1,))
      (conv3): Conv1d(128, 1024, kernel_size=(1,), stride=(1,))
      (bn1): BatchNorm1d(64, eps=1e-05, momentum=0.1, affine=True, track_running_stats=True)
      (bn2): BatchNorm1d(128, eps=1e-05, momentum=0.1, affine=True, track_running_stats=True)
      (bn3): BatchNorm1d(1024, eps=1e-05, momentum=0.1, affine=True, track_running_stats=True)
    )
    (1): Linear(in_features=1024, out_features=1024, bias=True)
    (2): BatchNorm1d(1024, eps=1e-05, momentum=0.1, affine=True, track_running_stats=True)
    (3): ReLU()
  )
  (decoder): PointGenCon(
    (conv1): Conv1d(2054, 2054, kernel_size=(1,), stride=(1,))
    (conv2): Conv1d(2054, 1027, kernel_size=(1,), stride=(1,))
    (conv3): Conv1d(1027, 513, kernel_size=(1,), stride=(1,))
    (conv4): Conv1d(513, 256, kernel_size=(1,), stride=(1,))
    (conv5): Conv1d(256, 128, kernel_size=(1,), stride=(1,))
    (conv6): Conv1d(128, 3, kernel_size=(1,), stride=(1,))
    (th): Tanh()
    (bn1): BatchNorm1d(2054, eps=1e-05, momentum=0.1, affine=True, track_running_stats=True)
    (bn2): BatchNorm1d(1027, eps=1e-05, momentum=0.1, affine=True, track_running_stats=True)
    (bn3): BatchNorm1d(513, eps=1e-05, momentum=0.1, affine=True, track_running_stats=True)
    (bn4): BatchNorm1d(256, eps=1e-05, momentum=0.1, affine=True, track_running_stats=True)
    (bn5): BatchNorm1d(128, eps=1e-05, momentum=0.1, affine=True, track_running_stats=True)
  )
)
